experiments/exp_1_2/models/best_acc_model_temp.pt (torch, 93353 bytes, 5 tensors)

net.0.weight f4 [128, 105]
000000 d7 bb ed bc 85 a6 36 be a9 ca c7 3c 40 f4 7a 3d
       -0.029020233 -0.1783696 0.024388628 0.06126809
000010 16 5c e0 bc c1 90 00 bc 8d 73 29 bd 09 b7 80 bc
       -0.02738766 -0.007847012 -0.041369963 -0.015712278
000020 5f f3 c8 bb f7 c7 d0 3c e2 2d 1d 3d b2 cd d5 bc
       -0.0061325277 0.025485976 0.038373835 -0.02609906
000030 24 5a ab 3b ac 22 61 bd 41 95 38 3d 13 c7 5e bd
       0.0052292515 -0.054964706 0.045064215 -0.05438907
000040 3f 39 4d 3d e2 b4 85 bd bc 88 8f 3d a8 04 09 3d
       0.050103422 -0.06528641 0.07008502 0.033451706
000050 de 41 2d 3c 84 de 20 bd 40 00 a2 bd 24 d9 93 3d
       0.010574786 -0.039274707 -0.07910204 0.07219151
000060 df 53 86 bd c5 e7 a9 3d d4 75 2f bc d8 b5 c5 3d
       -0.06558966 0.0829616 -0.010709245 0.096538246
000070 84 b5 a1 bd 27 34 07 bd 95 41 73 bd 5c df 06 bd
       -0.078959495 -0.03300872 -0.059388716 -0.032927856
000080 7e 55 81 3d 59 51 8f 3d b6 24 f5 3c 04 cb a4 bd
       0.063151345 0.06997938 0.029924732 -0.08046535
000090 9a 04 45 3d 80 30 c1 bb f1 03 22 bd ff db 40 3d
       0.04810009 -0.005895674 -0.03955454 0.047084805
0000a0 ff c7 7e 3c 54 f3 52 bd 8d 83 51 bd 2e d5 17 3d
       0.0155506125 -0.051501587 -0.051150847 0.03706854
0000b0 c6 0d 03 3d 4a 80 01 39 13 b7 51 3d 52 55 d5 bc
       0.031995557 0.0001235019 0.051199984 -0.02604166
0000c0 ac d6 92 3d 44 1e a7 bd 4b 18 dc bc 6a a5 88 bd
       0.07169852 -0.081600696 -0.026867053 -0.06672175
0000d0 9f 98 2b 3d 87 83 8f bb 9b 93 be bb 81 f9 ac 3c
       0.041893598 -0.004379693 -0.005815936 0.021115066
0000e0 bb 46 50 3d af 9a 3d bb 10 06 a1 bc fc a6 9e 3c
       0.050848704 -0.002893131 -0.019656211 0.019366734
0000f0 0a 71 bd bc f6 ba 5c bc fb ff b4 3c de 7d be 3b
       -0.02312519 -0.013472309 0.022094717 0.0058133444
000100 32 14 3f ba ae 19 12 3c fa b3 7e bd 56 58 4e 3d
       -0.0007289081 0.008917255 -0.062183358 0.050377212
000110 f7 d3 e8 bc 2a 36 68 3d e4 58 1f bc f8 06 f8 3b
       -0.028421385 0.05669228 -0.009725783 0.00756919
000120 11 48 84 bd 80 48 7b bd 73 94 f0 3c 79 37 48 3c
       -0.06459058 -0.06134844 0.029367661 0.012220257
000130 01 80 19 3d 63 d8 1c 3d 51 18 02 3c 35 ce 98 bd
       0.03747559 0.0382923 0.007940368 -0.07461206
000140 fe 68 59 bd 7e e7 6f bd ca 09 54 3d f0 90 ed 3c
       -0.053078644 -0.058570378 0.051767148 0.028999776
000150 fb ac 17 bd 2f 1a 6d bd 2f 90 7b bd 58 f6 78 3d
       -0.0370302 -0.0578863 -0.0614168 0.060781807
000160 d8 df 8c 3d 72 9f 5d 3d 74 b4 e9 3c d8 3b 12 bd
       0.06878632 0.054107137 0.02852843 -0.035701603
000170 9a 34 67 3d 4f 19 f9 3c ba d9 39 bd 73 d5 d9 bb
       0.05644665 0.030407576 -0.045373656 -0.0066477596
000180 38 bf 02 bd e5 81 3f 3d c1 50 7f 3d fe 4c 97 3d
       -0.03192064 0.046754736 0.062332872 0.07387732
000190 97 5b 64 3d 67 b9 61 bd 94 f8 a4 3d e5 a7 74 bd
       0.05575141 -0.055108454 0.08055225 -0.05973043
0001a0 44 b3 3b bd 91 80 6f 3c 51 ba 3a be 69 3a 78 3d
       -0.045825258 0.014618055 -0.18235137 0.06060258
0001b0 a5 96 86 3c 7c a8 93 bd 50 e5 00 bd 46 05 28 bd
       0.016429255 -0.0720987 -0.03146869 -0.041020654
0001c0 fc f7 8c 3d 77 68 41 3d d9 d2 90 bd d7 9e 7f 3b
       0.06883237 0.047218766 -0.07071466 0.0039004588
0001d0 e3 7d f7 3c a6 22 1a bd cc ef 63 3c da 59 b9 3a
       0.030211395 -0.0376307 0.0139121525 0.0014141158
0001e0 f3 67 71 bc 3d c2 3b bd fb 3e c5 3b d3 38 2a 3d
       -0.014734256 -0.045839537 0.0060194707 0.041558098
0001f0 c8 39 19 3d a2 90 d7 3c 26 a0 77 3d f3 50 23 bd
       0.03740862 0.026314083 0.060455464 -0.03987212
000200 7d bd d7 3b d1 a1 7c 3c ab 92 4b 3d 9a 5c 8b 3c
       0.006583868 0.015419439 0.04970042 0.01701193
000210 80 ff 47 bd 8d 75 b9 bd 07 d1 28 3d 50 85 0f 3d
       -0.04882765 -0.09055624 0.04121497 0.035039246
000220 b1 05 6c bd bc fd 27 3d 55 00 1a bc 29 c8 d3 bc
       -0.057622615 0.041013464 -0.009399493 -0.02585228
000230 d1 6f 2b bc 0e d5 3e bd a7 dd 06 3d 5e 84 61 bc
       -0.010463671 -0.046589904 0.032926228 -0.013764469
000240 22 e5 8f bc 5b e4 ea bc 1d 5e 17 bb af 34 a3 3d
       -0.017565314 -0.028673341 -0.0023096867 0.07969033
000250 99 c7 7c 3c aa 0b 1c bc da fe 81 3d ce 3f 70 bc
       0.015428447 -0.009524265 0.06347437 -0.01466365
000260 ea 4b 1c bd 19 0a 93 bc cc 24 51 3d 5d ac 70 bd
       -0.038158335 -0.01794915 0.051060483 -0.05875813
000270 2b 01 68 3d 5e 43 72 bd 59 d6 fd bc ab 99 4f bd
       0.05664174 -0.059146278 -0.030985998 -0.05068366
000280 2f 73 8e 3d 3e 14 66 bd ba 0b ff 3c 29 4a af 3b
       0.06955563 -0.05617165 0.031133521 0.0053494168
000290 7b 8f 11 3d ee 69 86 bc f9 f7 0f bd 84 d3 2f bc
       0.035537224 -0.016407933 -0.035148595 -0.010731582
0002a0 d1 be a3 3c 29 6d 0f bc f5 12 dc 3b 15 c1 cb 3d
       0.01998845 -0.008754053 0.006716127 0.09948937
0002b0 bf 86 01 bc d1 7b c0 3b 0b 88 97 3c 5e 0f cf 3c
       -0.007905661 0.005874135 0.018497488 0.025275882
0002c0 cc 03 02 3c ac 42 d6 3d 3f b6 ad 3b 9f ea 6b bd
       0.007935476 0.104619354 0.0053012664 -0.0575968
0002d0 e6 f4 89 bd 4d 60 9e bd 61 7b 01 3c 95 8d 07 bd
       -0.06736164 -0.07733212 0.007902951 -0.033094008
0002e0 45 65 00 bc 76 54 e3 bc 47 d2 05 bd 1c 1d 03 bb
       -0.007836645 -0.027750235 -0.03267124 -0.0020006364
0002f0 9e c5 ad bd 91 ac 8e 3c 79 85 6e 3c 55 dd 40 3d
       -0.08484958 0.01741627 0.01455819 0.04708608
000300 d1 88 3c bd 00 c5 9b 3c d1 7e 9a 3d 44 cc 39 bd
       -0.046028916 0.019014835 0.075437196 -0.04536082
000310 eb 75 0c 3d 45 bb b4 bd 5b ff e3 bc 71 e1 87 3d
       0.034292143 -0.08824781 -0.027831724 0.066347964
000320 75 6d 94 3d 9c 5c d2 3b 78 c0 28 3d 72 f7 87 3d
       0.0724744 0.0064197313 0.041199178 0.06638993
000330 d0 80 2c bd a3 2c 7a 3b 22 0f 7c bc b2 54 b5 3c
       -0.042115033 0.0038173578 -0.015384467 0.022135112
000340 32 a8 c1 3c 10 91 94 bc 6b cc 31 bd 67 32 3d be
       0.023639772 -0.018135577 -0.04340784 -0.18476258
000350 a5 8f 2e bd 0e e0 79 3b 87 0f 9c 39 93 59 4f 3d
       -0.04261746 0.0038127932 0.00029766207 0.050622534
000360 aa 9e d1 bb b7 99 58 3c 02 49 8c bc e3 9d ab 3c
       -0.006397088 0.013220242 -0.017124657 0.02094931
000370 50 12 f6 3c cf 54 4e 3c ba e3 b2 bc 28 f7 21 bd
       0.030038029 0.012593462 -0.021837104 -0.039542347
000380 43 02 ec 3c 9b 74 79 3d 1b 50 97 bd ee 48 98 bb
       0.028809672 0.06090222 -0.07388326 -0.004647366
000390 b3 d2 41 3d 44 48 08 3d 61 19 f9 3b 35 b0 7f 3d
       0.04732008 0.033272043 0.0076019024 0.062423903
0003a0 38 0d 34 3d 39 84 97 bd 23 64 0a 3d ed 16 8e 3c
       0.04395792 -0.07398266 0.033786904 0.017344916
0003b0 b9 26 f5 3c d5 2c 43 bd 5c 57 b7 bc d3 2f 48 3d
       0.029925691 -0.047650177 -0.022380523 0.048873734
0003c0 c6 d0 8e bd eb 28 b0 bc 53 19 4f bc 71 84 d9 3c
       -0.06973414 -0.021503886 -0.012640315 0.02655241
0003d0 73 ce bb 3c b6 1f 38 3b 9b 27 e0 bc 9a d7 cb 3d
       0.022925591 0.0028095073 -0.027362635 0.09953232
0003e0 3d 14 a4 3c 0d 6f bc bc ab b0 a6 bd 8c a1 6d 3c
       0.020029182 -0.023002172 -0.081391655 0.014503848
0003f0 b6 85 28 3d 78 35 42 3d 2d 59 53 bd 17 b8 fb 3b
       0.04114314 0.047414273 -0.051598717 0.0076818573

net.0.bias f4 [128]
000000 95 5b 7e be 05 44 92 be c9 81 93 be 1d 72 79 be
       -0.24839623 -0.2856752 -0.28809956 -0.24359937
000010 8c 3d 85 be 3f 7c 7f be f5 37 74 be 22 17 75 be
       -0.2602352 -0.2494974 -0.23849471 -0.23934606
000020 10 fa 8c be e7 99 7b be 79 86 93 be c6 86 a9 be
       -0.27534533 -0.24570428 -0.28813532 -0.33110636
000030 bb c8 84 be 21 af 8b be d4 c1 89 be 59 e2 3e be
       -0.25934395 -0.2728205 -0.26905692 -0.18641032
000040 b7 48 82 be 4c 84 7b be ab ba 7a be 64 0a 83 be
       -0.25446102 -0.24562186 -0.2448527 -0.25593865
000050 d5 44 57 be 7e 05 8c be 93 ca 9a be 6a 47 74 be
       -0.21022351 -0.2734794 -0.30232677 -0.23855367
000060 f3 9b 86 be 14 08 5b be 02 51 79 be 04 e7 8e be
       -0.26290855 -0.213898 -0.24347308 -0.27910626
000070 15 68 65 be e5 72 8f be b8 98 a6 be b2 b3 8e be
       -0.22402985 -0.28017345 -0.3253839 -0.27871472
000080 f4 74 71 be 71 6f 58 be b8 2f 78 be 90 1d 29 be
       -0.2357977 -0.21136262 -0.24236953 -0.16515183
000090 64 15 89 be 8b 89 3c be da a9 84 be 46 e2 7a be
       -0.26774132 -0.18411843 -0.25910836 -0.24500379
0000a0 bf d1 97 be 41 1f 73 be cf 90 97 be d2 59 77 be
       -0.2965221 -0.23742391 -0.29602668 -0.24155357
0000b0 a2 a4 a4 be b2 9b 64 be d6 ad 9b be 9f 86 9d be
       -0.32156855 -0.22325018 -0.30406064 -0.3076677
0000c0 6c 94 47 be a7 a3 61 be 01 a3 78 be 56 e3 8c be
       -0.19490212 -0.22035085 -0.24280931 -0.27517194
0000d0 6e dd 78 be 3c d2 91 be bb 9d 88 be 3d 21 6c be
       -0.24303219 -0.2848071 -0.2668284 -0.23059554
0000e0 8b 53 78 be d5 e7 74 be ed d1 74 be 92 b6 52 be
       -0.24250619 -0.23916562 -0.23908205 -0.20577458
0000f0 d6 12 93 be 44 25 97 be c5 4e 96 be 4d 4a 83 be
       -0.28725308 -0.2952062 -0.2935697 -0.25642624
000100 7e 83 7e be ed 0e 79 be 0b 1d 91 be 6f ff 82 be
       -0.24854848 -0.243221 -0.2834247 -0.25585505
000110 f4 9f 80 be 95 6c 7d be 8b 8d 74 be 5b 08 3b be
       -0.25122035 -0.24748452 -0.2388212 -0.18264906
000120 7b f2 68 be 90 6c 4d be d4 2a 8a be f1 61 93 be
       -0.22748749 -0.20060945 -0.269858 -0.2878566
000130 01 d1 68 be 11 02 79 be 72 58 90 be 27 c0 82 be
       -0.22735979 -0.24317195 -0.28192478 -0.25537226
000140 bd 1b 76 be 8c e2 7a be ef 85 7a be 84 c4 7f be
       -0.24034019 -0.24500483 -0.24465154 -0.24977309
000150 74 4c 68 be 32 f6 7c be b4 23 71 be 46 0f 86 be
       -0.22685415 -0.24703291 -0.23548776 -0.26183528
000160 b0 51 7d be e9 34 7c be 8a 88 6a be 64 b9 8a be
       -0.24738193 -0.24629559 -0.22903648 -0.27094567
000170 bc 12 93 be 5e fa 87 be f1 f8 7e be 55 6a 81 be
       -0.2872523 -0.26558203 -0.24899651 -0.25276437
000180 00 88 7d be 3e 40 92 be ec bc 8a be 97 bc 53 be
       -0.24758911 -0.28564638 -0.2709726 -0.2067741
000190 8a 71 90 be 1e 7e 70 be 7b d1 88 be 41 38 7c be
       -0.28211623 -0.2348561 -0.2672232 -0.24630834
0001a0 7c f5 5f be ec c6 85 be a7 10 7a be 17 52 6f be
       -0.21870989 -0.26128328 -0.24420415 -0.23371159
0001b0 f6 d5 7d be 77 97 75 be 74 17 80 be 4d 90 ad be
       -0.24788651 -0.2398356 -0.25017893 -0.33899155
0001c0 5d 5b 71 be 75 af 7f be 85 75 8a be a6 82 8b be
       -0.23570009 -0.24969275 -0.27042785 -0.27248114
0001d0 a9 38 7f be 2a 0c 76 be 45 2f 7e be 27 02 7c be
       -0.24923958 -0.24028078 -0.2482272 -0.24610196
0001e0 e0 fa 75 be e7 74 a2 be 23 f7 67 be fd a5 57 be
       -0.24021482 -0.31729814 -0.22652869 -0.21059413
0001f0 03 12 77 be bd 6f 86 be 4d a4 5f be c1 1c 43 be
       -0.24127965 -0.26257125 -0.2184002 -0.19053937

net.3.weight f4 [64, 128]
000000 1f e5 fa 3b 77 53 1f 3d 7e c5 50 bd 12 82 da bc
       0.007656708 0.038897958 -0.050969593 -0.02667335
000010 5b 4b ab 3c a5 84 8f 3b ae 74 09 3c f7 eb 5b 3b
       0.020909956 0.004379826 0.008389635 0.0033557394
000020 a2 f7 6c bc fb 13 78 3c 0c 3c 15 3c c0 c5 68 bc
       -0.014463337 0.015141482 0.009108555 -0.0142073035
000030 82 d3 72 3c 25 fd 51 bc 8b 04 d2 3c 82 f3 1a bd
       0.014820935 -0.012816702 0.025636932 -0.037829883
000040 9d ad 73 bd 34 cb 49 3d d5 12 34 3c 0e 08 44 bd
       -0.059491742 0.049266055 0.010990818 -0.047859244
000050 1e 21 5f bc 70 46 97 bc f4 6f 5b 3b 9a e5 8e 39
       -0.013618736 -0.018466204 0.0033483477 0.00027255417
000060 49 00 49 bc b6 60 13 bc f7 56 3e bd 82 90 95 3c
       -0.012268134 -0.008995226 -0.046469655 0.018257383
000070 64 ee a6 ba 0b d9 cb 3b 6b 78 c0 bc 71 22 fb 3c
       -0.0012735841 0.006220942 -0.02349492 0.030656071
000080 47 9a ab 3c b3 04 65 bc a8 13 6e 3c 54 16 b1 ba
       0.020947589 -0.013978171 0.014531054 -0.0013510683
000090 a6 cf 22 3c 12 d7 37 3c d7 a9 09 3c 8b 1a 93 bc
       0.009937203 0.01122071 0.008402309 -0.017956993
0000a0 c1 a4 c3 bc 51 1b 13 3d 2a 5c d4 bb 92 ee 8b 3c
       -0.023882272 0.035914723 -0.0064807134 0.017081533
0000b0 df 0f ab 3b 37 85 be 3c 9c 16 d7 bb 12 7c a0 3b
       0.005220398 0.023256881 -0.0065639745 0.004897603
0000c0 80 2d 22 3d 13 ea 6a bc a7 56 69 ba d1 a5 a2 bc
       0.039594173 -0.014338034 -0.0008901157 -0.019854458
0000d0 fb ee 9f bb 8e 34 1c bd ed 49 c6 3c f5 51 b2 bc
       -0.0048807836 -0.038136058 0.024205172 -0.021767596
0000e0 69 7a 05 bc 16 e8 50 bc 89 3f f4 3c 4a b8 58 3c
       -0.008146861 -0.012750646 0.029815452 0.013227532
0000f0 99 16 08 3d 46 8e 82 bc d6 0a 08 3d d9 ca 78 bc
       0.033224676 -0.015936982 0.03321346 -0.015185081
000100 64 9c 46 3d c5 5d 0d 3d cb 49 d2 3c f7 6c 0b bd
       0.04848899 0.034513254 0.025669953 -0.034039464
000110 d4 91 a2 bc b1 77 67 3b ca e1 b4 bc b1 f2 bc bb
       -0.019844927 0.0035319144 -0.02208032 -0.0057662358
000120 e9 d6 3e bc a5 24 b1 3c a6 3d 1d 3c da 66 b9 bb
       -0.011647918 0.021623919 0.009597218 -0.005658013
000130 d6 30 58 3b 70 71 2d bc e1 aa 14 bd f3 26 da 3c
       0.0032988093 -0.010586128 -0.036295775 0.0266299
000140 ac 4c 86 3c 68 8d cc 3c 92 08 fd bc 6c ae d6 3b
       0.016393982 0.024969772 -0.030887876 0.0065515544
000150 9f 66 48 bd db d5 32 3c 32 7e 7e 3c 97 dd 1f bc
       -0.048925992 0.010915245 0.015533017 -0.009757421
000160 b1 77 68 bc c6 b6 7b bb d5 2b bd 3b a5 de ea 3c
       -0.014188693 -0.0038408502 0.0057730475 0.028670618
000170 e9 f9 1a 3c f8 4e fc 3b 96 05 d0 3c 8e c8 1e ba
       0.009458997 0.0076998435 0.025393289 -0.00060571067
000180 ef 36 e9 3c 7d 8d 2f 3d c9 1a 59 bd 2a ac cf bb
       0.028468577 0.042859543 -0.05300406 -0.006337662
000190 d9 57 f0 bb 6c 86 57 bc 7e d9 d3 3c 82 ba b8 bc
       -0.007334691 -0.013154607 0.025860544 -0.022549871
0001a0 d4 7b db bc 56 a9 23 3c ab 9e 60 3c b4 2c 0c bc
       -0.026792444 0.009989103 0.013709704 -0.00855558
0001b0 b8 4d bd 3c fa 4d de bb a6 1f 44 3c 7d 53 9b bc
       0.023108348 -0.006784198 0.011970436 -0.018960709
0001c0 28 dc f2 3b 2b fa 95 3c ad 0d a4 bc 1d f6 09 bc
       0.0074114986 0.018307766 -0.020026052 -0.008420494
0001d0 09 cb 7d 39 20 80 5b 3d d7 40 bf 3c de c6 b6 3c
       0.00024203597 0.053588986 0.023346348 0.022311624
0001e0 98 b9 4b 3c 75 34 74 bd 17 b7 93 3c 59 8c 37 bd
       0.012434386 -0.05962034 0.01803164 -0.04481158
0001f0 17 e8 db bc c3 48 28 3c 07 5f ac bc 7a 63 50 bc
       -0.026844067 0.010271254 -0.021041406 -0.01271903
000200 0b e6 fc bb 6a 44 07 bd 9a 4b 0b 3d 2b ce 10 3d
       -0.007717853 -0.03302423 0.034007646 0.035352867
000210 5a 76 b2 3c 59 bc de bc a7 59 e0 bc 3a 2c 08 bd
       0.02178495 -0.02718942 -0.0273865 -0.033245303
000220 3a de 0b 3b 1a ed 0a 3c 9a 01 30 3d 42 39 4b 3d
       0.0021342174 0.008479381 0.042970277 0.049615152
000230 e3 13 12 3d ce 29 bd 3c 1a 67 50 bc 9a 25 da 3c
       0.035663497 0.023091223 -0.012719894 0.026629258
000240 50 fb 64 bd 7d 37 f5 bc e6 54 00 bc ae e4 98 3c
       -0.055903733 -0.029933685 -0.007832741 0.01866373
000250 63 92 5a 3c c6 81 5d bd fb 6b 28 bd e7 0e 31 3d
       0.013340565 -0.05407884 -0.041118603 0.043227103
000260 90 00 46 bd 43 ba d2 bc f0 d1 30 bd 01 29 f6 3b
       -0.04834038 -0.025723582 -0.043168962 0.0075122123
000270 e9 eb 24 3d 28 a5 8d bc 7b 6f 04 ba fd 6e 52 3c
       0.040264044 -0.017290667 -0.0005052012 0.0128438445
000280 aa 23 85 3c a2 9a fd 3c 3e 15 47 bb 70 6c e4 3c
       0.016252358 0.030957524 -0.0030377652 0.027883738
000290 ad 58 5c bd 4f 46 f5 3b 47 fb f3 3c 19 55 29 bd
       -0.053795505 0.007485188 0.029782904 -0.04134092
0002a0 7c 17 12 3c 4c 93 ea ba c5 43 d9 bc 83 33 9a 3b
       0.008916732 -0.0017896681 -0.026521573 0.0047058477
0002b0 8f 1e f1 bc d8 67 ef 3c 1c 9f 38 3c 15 c1 ed bc
       -0.029433517 0.029224321 0.011268403 -0.029022733
0002c0 7c c3 11 3d 95 cc 0e 3c f5 86 1b bd 3e 7c 01 3d
       0.03558682 0.008715768 -0.037970502 0.031612627
0002d0 fa 70 ff bc 44 fb 7a bc 87 d9 b4 bc ca 03 9a bc
       -0.031181801 -0.015318695 -0.022076381 -0.018800635
0002e0 7b 51 47 3d 53 f3 fe 3c b0 89 80 3c 34 18 98 bc
       0.04866169 0.031121885 0.015690655 -0.018566228
0002f0 be eb ed bc 0a 1e 0d 3d a7 e7 fe ba 2e 65 43 bd
       -0.029043075 0.034452476 -0.00194477 -0.047703914
000300 eb 19 1d 3d 48 d1 0f bd ad f4 4c bc 15 9d 10 3d
       0.038354795 -0.035111696 -0.012509507 0.035306055
000310 73 85 53 3b 19 4f 7d bc 5b 6b 41 bd 66 74 c6 3c
       0.0032275587 -0.015460753 -0.047221523 0.024225425
000320 56 5d cf 3b 57 88 96 3c 50 98 bb 3c 04 82 17 bd
       0.006328265 0.018375559 0.022899777 -0.036989227
000330 ae ef 60 3c 2a a8 26 3c 8c 92 2d 3d ce 26 20 3d
       0.013729019 0.010171929 0.042376086 0.039099507
000340 7e 47 91 bc a2 fc 22 3d f0 b5 09 3a ad 02 34 3c
       -0.017734285 0.03979171 0.0005253246 0.010986966
000350 21 2b 8c 3d 22 48 c6 ba 21 15 36 3d 38 79 8b bd
       0.06844164 -0.0015127698 0.044453744 -0.0681023
000360 4b 7a f9 bc 45 92 b3 3a 86 80 3a bb 7f 39 d0 3b
       -0.030453822 0.0013700208 -0.0028457954 0.0063545103
000370 f0 f4 5a 3b 45 7f e2 3c 68 f4 dd bc 5b 2f 8f bc
       0.0033410154 0.027648577 -0.027094081 -0.017478636
000380 50 c9 f2 3c f4 5e c2 bc 84 c6 ee bc b6 1b cd 3c
       0.029637009 -0.023726918 -0.029147394 0.025037628
000390 3d 9f 7f 3c 0f df 45 3c 0b 56 e7 bb 95 ff 0e bd
       0.01560193 0.012077107 -0.0070598177 -0.03491171
0003a0 b7 87 27 3c bf 1b 0c 3c c0 52 f9 3c 39 5a 2e bd
       0.010225228 0.008551537 0.030434966 -0.04256651
0003b0 cc 62 03 3c 43 64 57 3b ec 0d f8 bb 61 b5 bf 3c
       0.0080191605 0.0032866157 -0.007570019 0.023401918
0003c0 b1 2d 16 bd c6 86 1d 3d 95 fc 33 3d 1a 1c 1c 3d
       -0.03666467 0.038458608 0.043942053 0.038112737
0003d0 c1 2d 3d 3c 5b 1f d0 bc b5 3d ec bc d8 08 64 bc
       0.011546553 -0.025405576 -0.028838018 -0.013918124
0003e0 02 30 3f bc 6b a6 a4 3c 30 39 df 3b 77 fd 8b bc
       -0.011669161 0.020098886 0.006812237 -0.017088635
0003f0 bc 83 54 3d 3f 9c e5 bb d1 58 20 3d 5c 6a 06 3c
       0.051883444 -0.0070071514 0.039147202 0.008204069

net.3.bias f4 [64]
000000 b2 8a e8 b7 e0 c3 5c b7 72 28 1e b8 34 74 47 37
       -2.772114e-05 -1.3158628e-05 -3.7707803e-05 1.188838e-05
000010 ce b8 ad 37 30 fa 22 38 bb 05 99 b7 ee f9 09 b6
       2.0709263e-05 3.8856815e-05 -1.824169e-05 -2.056007e-06
000020 b0 57 91 b8 47 91 33 37 04 cb ae b6 15 70 20 37
       -6.930472e-05 1.0703056e-05 -5.209238e-06 9.562839e-06
000030 c6 59 4e b7 37 7e f4 b7 6b b9 91 38 d8 5b 0f b7
       -1.2299459e-05 -2.914584e-05 6.9486756e-05 -8.544848e-06
000040 b3 8b c6 37 b4 c6 08 b8 c8 3f 07 38 5b bd 80 b8
       2.3668492e-05 -3.2609983e-05 3.224591e-05 -6.138786e-05
000050 29 1b c6 38 fc c5 54 37 20 d0 16 37 f2 a8 7e 37
       9.446435e-05 1.26822815e-05 8.989155e-06 1.5178915e-05
000060 a3 8a 5d b8 17 67 ab 37 dc e3 23 38 3a 4e 74 38
       -5.281962e-05 2.0432793e-05 3.907444e-05 5.8246987e-05
000070 a1 7f e3 36 52 69 a0 b7 94 10 1c 36 ea 1a 73 38
       6.779985e-06 -1.912253e-05 2.3255461e-06 5.796078e-05
000080 b4 ac aa b7 5c 86 9f 37 95 cd ad b7 46 41 de 37
       -2.0346e-05 1.9016843e-05 -2.0718939e-05 2.6494858e-05
000090 f6 c6 1a 36 c0 6b d5 37 37 51 11 b7 30 e3 3b b7
       2.3063599e-06 2.5441754e-05 -8.661583e-06 -1.1198965e-05
0000a0 de 91 00 37 5f 0a 10 37 e6 68 63 b7 eb 2a 6d 38
       7.663357e-06 8.585484e-06 -1.3554678e-05 5.6545174e-05
0000b0 9d f1 7c 37 5b 11 42 b8 f1 5a 86 36 36 a5 73 37
       1.50766255e-05 -4.6269368e-05 4.004098e-06 1.4522395e-05
0000c0 b8 d7 f0 38 29 58 fd 37 47 7c cf b7 31 bc fb 36
       0.000114842725 3.0201003e-05 -2.4734194e-05 7.5022913e-06
0000d0 64 5c 30 38 e8 e1 5f 38 95 b8 24 39 35 6e c3 b6
       4.2047715e-05 5.3377735e-05 0.00015709021 -5.8242827e-06
0000e0 05 5d 83 b7 3e 61 17 b7 30 8a a5 35 4f 85 b2 b7
       -1.5659733e-05 -9.022942e-06 1.2333676e-06 -2.128133e-05
0000f0 c0 d9 27 38 ce d0 5d b8 8b b2 37 b7 da 77 ab b7
       4.00187e-05 -5.288497e-05 -1.094922e-05 -2.0440599e-05

net.5.weight f4 [1, 64]
000000 aa 20 7f b7 15 e7 9f 39 85 74 94 b9 eb f4 ac b9
       -1.520679e-05 0.00030499013 -0.00028315574 -0.00032988875
000010 08 be 88 39 4c 0b 97 39 e8 14 82 b7 1c 39 7b b8
       0.00026081526 0.0002880938 -1.5506943e-05 -5.989625e-05
000020 e5 80 c5 38 a7 05 84 b8 d4 e9 8b b7 b5 da 3f 39
       9.4177005e-05 -6.295303e-05 -1.6678976e-05 0.00018296654
000030 3c de 67 b9 10 fb bd b8 9f a5 2f 39 c4 e9 ad 38
       -0.00022112665 -9.058986e-05 0.00016750999 8.292825e-05
000040 51 8c c4 b9 7a 7b 40 b9 12 09 27 38 5a 98 1b b8
       -0.00037488577 -0.00018356545 3.982435e-05 -3.709677e-05
000050 e3 86 f8 39 78 5e 92 38 ff e9 08 38 d4 37 41 b7
       0.00047402745 6.979419e-05 3.2642853e-05 -1.1516695e-05
000060 86 ba f0 b8 a7 6c 9a b9 8c 27 fd 36 53 d1 f1 39
       -0.000114788345 -0.0002945412 7.5445914e-06 0.0004612306
000070 d6 d9 8f b9 16 bf f4 39 1b 2e 8d b8 f6 c2 a3 37
       -0.00027437386 0.00046681677 -6.731992e-05 1.95219e-05
000080 2c 26 60 b8 cb 75 3b 39 70 b0 a2 38 9d bd 1e b9
       -5.3441312e-05 0.00017877591 7.757626e-05 -0.0001513869
000090 f2 09 b7 b8 3b 88 86 39 56 b6 3c b8 54 b9 b4 b9
       -8.7279725e-05 0.0002565997 -4.4992506e-05 -0.00034470356
0000a0 08 98 75 b9 9f 5a 16 b9 98 d4 62 b9 3a 96 10 39
       -0.00023421657 -0.00014338874 -0.00021632237 0.00013788874
0000b0 07 db 01 39 2c 40 44 b8 43 c7 e5 38 c8 79 03 39
       0.00012383993 -4.6789806e-05 0.00010956686 0.000125385
0000c0 71 18 69 b7 dc 3b 34 39 d4 45 f9 b9 ec 18 25 b8
       -1.3893573e-05 0.00017188437 -0.00047545007 -3.9362276e-05
0000d0 19 9d 8e 39 a2 9a 68 39 8f 24 3b 39 7e ea 81 b9
       0.00027201397 0.0002218285 0.00017847329 -0.00024779508
0000e0 6a 30 db 39 b5 6e 9f 37 86 28 76 b8 46 66 0d b9
       0.00041807006 1.9005829e-05 -5.868871e-05 -0.00013484908
0000f0 90 3c 52 39 64 3d 1d b9 d7 f2 55 b8 ea 45 57 b9
       0.00020049722 -0.00014995557 -5.100932e-05 -0.00020530043
