experiments/exp_1_2/models/best_loss_model_temp.pt (torch, 93365 bytes, 5 tensors)

net.0.weight f4 [128, 105]
0.011674311 -0.13827616 0.057828855 -0.06870854 -0.022672893 0.024091743 0.016821995 -0.05920905
0.007532105 0.02442345 0.09107931 -0.04603438 -0.049951922 0.004196539 0.010948994 -0.02095807
0.024276499 0.059485864 0.035965785 0.013911383 0.007547053 -0.079944044 0.05886844 0.036373418
0.005832714 0.009805446 0.0366307 -0.017626418 -0.050002266 -0.05299062 0.065774836 0.09242604
-0.0741606 0.0910585 -0.051180616 0.009272501 -0.061045714 -0.05362069 0.039315272 -0.06057868
0.026091272 0.061233878 0.012483067 0.07688223 -0.07832054 -0.07414153 0.051103014 7.5732416e-05
-0.04843568 -0.048485417 0.07655307 0.06719802 -0.03377159 -0.0541802 -0.031035943 -0.05029927
0.08096092 -0.00066370855 0.0070735794 0.0501822 -0.02807965 -0.00465415 -0.012856396 0.006617166
-0.0018282234 0.005934222 0.020471385 0.02640559 0.033708185 0.033596378 -0.062134184 0.008117055
0.06169372 0.054171894 0.01255078 0.028097874 0.031591106 -0.015537359 0.0823852 0.031169718
-0.09853844 -0.09354328 -0.08533396 -0.009227073 -0.09244623 -0.10136034 0.033421893 -0.010304892
-0.08496258 0.05868576 -0.083822034 0.004407682 0.056717627 0.046133187 0.05372019 -0.09452289
-0.01159545 0.03845756 -0.053471286 0.059985973 -0.028316613 -0.013748482 0.046788108 0.065760404
0.031345896 -0.0017881915 -0.16794203 0.028688518 -0.00628127 -0.091258205 0.01577834 0.02386442
0.0023406143 0.05907348 0.0032974342 -0.074972026 0.030713055 0.027361473 -0.03276851 0.0065681376
-0.06844991 -0.07471557 0.058509566 0.053550035 0.049713112 0.007697388 0.034844805 -0.033241082
0.054346062 -0.015415541 0.038537115 0.005828973 0.016725596 0.05385056 -0.05151834 -0.08828241
-0.059551224 -0.01661606 -0.076262854 0.069764465 0.019110866 -0.02806221 0.033217125 -0.0329707
0.06138412 0.05416541 -0.009872842 0.036800303 0.025494413 -0.02860951 -1.5220799e-05 -0.050235964
-0.06454365 -0.070183545 -0.027993387 0.08798293 -0.049979217 0.060333982 0.04109039 0.08886052
0.026763393 -0.056035727 -0.032265116 -0.052093226 0.044434957 0.03862009 -2.2615508e-05 -0.005214675
0.007607498 -0.015306317 0.0038433522 0.0020871856 0.0047605024 0.043891437 9.6090764e-05 0.062402286
-0.015584595 0.019289553 -0.044795677 -0.038859878 -0.030299593 -0.047954056 -0.10802611 0.038589712
0.014378229 -0.045234215 -0.0459013 0.054632813 0.051971167 0.036905404 -0.023446903 0.066339426
-0.009010667 -0.025910132 0.065013595 0.044902354 0.012364286 -0.07516381 0.07078208 0.054775193
0.0021310362 -0.07063194 0.03171119 -0.058609366 0.009871958 0.069344945 0.0331108 -0.033788033
-0.055568684 0.015321634 -0.013466712 -0.15297215 0.022896726 -0.0015357165 -0.080938905 -0.009822647
0.059830934 -0.05113698 0.041982144 0.07054974 -0.06253446 0.042793483 -0.03380463 -0.016564682
0.021981405 0.010962097 0.08092097 -0.040021054 0.073695235 0.0033709146 0.015088509 -0.012313898
-0.027077219 0.032397293 0.083990544 0.047586408 -0.0069586476 0.02136167 -0.06254911 -0.06283255
-0.019341692 0.07910464 0.041641712 0.040598467 -0.024282446 -0.019931225 -0.025951948 -0.024714906
0.046726413 -0.011273773 0.041975506 -0.0476803 0.032205086 -0.030327728 0.027519982 -0.050055966
00000000: 9c45 3f3c 4498 0dbe f3dd 6c3d 10b7 8cbd
00000010: 81bc b9bc 0c5c c53c 48ce 893c 3085 72bd
00000020: e0cf f63b b013 c83c ca87 ba3d 8c8e 3cbd
00000030: 639a 4cbd 1f83 893b 6963 333c 42b0 abbc
00000040: 82df c63c 73a7 733d dc50 133d 92ec 633c
00000050: 454d f73b b4b9 a3bd 0920 713d 4bfc 143d
00000060: 5a20 bf3b 05a7 203c 130a 163d 4765 90bc
00000070: 2dcf 4cbd b10c 59bd f5b4 863d dd49 bd3d
00000080: 83e1 97bd e17c ba3d c4a2 51bd b0eb 173c
00000090: 120b 7abd 5ea1 5bbd 0d09 213d 5a21 78bd
000000a0: 5dbd d53c 60d0 7a3d c785 4c3c 6e74 9d3d
000000b0: 8566 a0bd 84d7 97bd 6551 513d 88d2 9e38
000000c0: 7e64 46bd a598 46bd dbc7 9c3d 1e9f 893d
000000d0: 1454 0abd 0fec 5dbd 173f febc 9b06 4ebd
000000e0: d7ce a53d bafc 2dba 7cc9 e73b da8b 4d3d
000000f0: 4b07 e6bc d781 98bb a2a3 52bc d0d4 d83b
00000100: ffa0 efba dd73 c23b 9bb3 a73c 8950 d83c
00000110: 9811 0a3d 5b9c 093d 6a80 7ebd 65fd 043c
00000120: 8eb2 7c3d 59e3 5d3d c9a1 4d3c 832d e63c
00000130: ad65 013d 6890 7ebc 92b9 a83d a357 ff3c
00000140: 86ce c9bd 9f93 bfbd 92c3 aebd 262d 17bc
00000150: 7354 bdbd 0396 cfbd 65e5 083d dad5 28bc
00000160: dc00 aebd 7b60 703d e3aa abbd 516e 903b
00000170: be50 683d 27f6 3c3d b409 5c3d 3895 c1bd
00000180: d8fa 3dbc ad85 1d3d b504 5bbd dab3 753d
00000190: 3ef8 e7bc 5041 61bc e3a4 3f3d 64ad 863d
000001a0: 8e64 003d c061 eaba fff8 2bbe 2f04 eb3c
000001b0: 1dd3 cdbb 95e5 babd 9441 813c 517f c33c
000001c0: fe64 193b 09f7 713d c419 583b ef8a 99bd
000001d0: f299 fb3c 2b25 e03c 4638 06bd 8839 d73b
000001e0: 772f 8cbd 7a04 99bd baa7 6f3d 4857 5b3d
000001f0: fa9f 4b3d 5f3a fc3b 6db9 0e3d cd27 08bd
00000200: fa99 5e3d 7791 7cbc 18d9 1d3d f800 bf3b
00000210: 1e04 893c 6892 5c3d e504 53bd 68cd b4bd
00000220: fceb 73bd 671e 88bc b32f 9cbd ace0 8e3d
00000230: 648e 9c3c b8e2 e5bc ae0e 083d 490c 07bd
00000240: ea6d 7b3d 8ddc 5d3d b3c1 21bc eabb 163d
00000250: a9d9 d03c 7e5e eabc d55c 7fb7 3ac4 4dbd
00000260: 762f 84bd 64bc 8fbd 6352 e5bc 6530 b43d
00000270: 02b7 4cbd c420 773d 664e 283d 81fc b53d
00000280: e73e db3c b885 65bd 6d28 04bd b55f 55bd
00000290: 6e01 363d 1930 1e3d 6fb6 bdb7 dddf aabb
000002a0: 5248 f93b 59c7 7abc c0e0 7b3b 2ac9 083b
000002b0: fdfd 9b3b 82c7 333d 5684 c938 8a99 7f3d
000002c0: 8756 7fbc 2005 9e3c ac7b 37bd 892b 1fbd
000002d0: da36 f8bc 796b 44bd cb3c ddbd 3f10 1e3d
000002e0: aa92 6b3c 8347 39bd 0003 3cbd a8c6 5f3d
000002f0: b8df 543d 1f2a 173d b813 c0bc f7dc 873d
00000300: 7aa1 13bc 7c41 d4bc d925 853d 88eb 373d
00000310: 9393 4a3c 7cef 99bd 32f6 903d f45b 603d
00000320: dba8 0b3b 7ba7 90bd 98e3 013d 6010 70bd
00000330: febd 213c b904 8e3d 319f 073d 5265 0abd
00000340: fd9b 63bd 9707 7b3c 7ca3 5cbc bba4 1cbe
00000350: ea91 bb3c 184a c9ba 4cc3 a5bd 2bef 20bc
00000360: 4811 753d 0375 51bd 78f5 2b3d 627c 903d
00000370: 1112 80bd 3848 2f3d b976 0abd a8b2 87bc
00000380: 5912 b43c 5e9a 333c e5b9 a53d 1eed 23bd
00000390: 87ed 963d 90ea 5c3b cb35 773c 3bc0 49bc
000003a0: 0bd1 ddbc 06b3 043d 3c03 ac3d f7e9 423d
000003b0: 5e05 e4bb abfe ae3c bf19 80bd 5aae 80bd
000003c0: 7872 9ebc 9d01 a23d 8090 2a3d 944a 263d
000003d0: fbeb c6bc cf46 a3bc 2e99 d4bc ea76 cabc
000003e0: 3264 3f3d a2b5 38bc 82ee 2b3d 6b4c 43bd
000003f0: 7be9 033d db71 f8bc 9671 e13c 7c07 4dbd

net.0.bias f4 [128]
-0.26550263 -0.2480337 -0.24138002 -0.28501362 -0.22988746 -0.26933524 -0.24580726 -0.2796682
-0.24119265 -0.25581068 -0.28918976 -0.2981506 -0.26695818 -0.29249144 -0.27442852 -0.25991738
-0.27078137 -0.24405265 -0.24418636 -0.20952293 -0.27527323 -0.28513968 -0.2512581 -0.23360734
-0.28591046 -0.26839897 -0.24104948 -0.27075225 -0.25657383 -0.30376154 -0.28139532 -0.23436983
-0.24696529 -0.27594852 -0.24910943 -0.21544681 -0.20351747 -0.22957735 -0.29507354 -0.24700828
-0.24017881 -0.32058704 -0.22876573 -0.22755824 -0.28545186 -0.26408857 -0.27793372 -0.29240495
-0.2542519 -0.20793071 -0.22145478 -0.29882702 -0.24484652 -0.25581804 -0.24789783 -0.25335345
-0.24563585 -0.24959545 -0.26699147 -0.27679598 -0.23705551 -0.25614583 -0.2459047 -0.2668701
-0.25261146 -0.2242553 -0.2656236 -0.21241276 -0.25395948 -0.24751282 -0.22788146 -0.22565866
-0.24858007 -0.24845201 -0.23321778 -0.29403636 -0.21219687 -0.22469345 -0.28722683 -0.30297965
-0.2192848 -0.24865772 -0.2472441 -0.24644518 -0.3075548 -0.2500025 -0.27843666 -0.2695175
-0.24264088 -0.25367016 -0.31895193 -0.2816039 -0.20186277 -0.24803591 -0.24660131 -0.2597855
-0.32590204 -0.21316555 -0.28277308 -0.22116125 -0.2845346 -0.26383367 -0.24197216 -0.23705065
-0.2538693 -0.2194028 -0.24731475 -0.28867444 -0.28010106 -0.2450964 -0.28739294 -0.17372194
-0.20154186 -0.2526784 -0.2794369 -0.24602737 -0.2362076 -0.2505335 -0.238399 -0.2210518
-0.27264026 -0.26005077 -0.24417137 -0.2571648 -0.2400442 -0.21903399 -0.23204567 -0.29198948
00000000: f6ef 87be 8cfc 7dbe 532c 77be 4eed 91be
00000010: 9e67 6bbe 4fe6 89be e6b4 7bbe ac30 8fbe
00000020: 35fb 76be 9ef9 82be ae10 94be 32a7 98be
00000030: beae 88be 70c1 95be e581 8cbe e413 85be
00000040: dba3 8abe f0e8 79be fd0b 7abe 2e8d 56be
00000050: 9df0 8cbe d4fd 91be e7a4 80be c336 6fbe
00000060: db62 92be 976b 89be add5 76be 0aa0 8abe
00000070: a55d 83be a286 9bbe 0c13 90be a5fe 6fbe
00000080: 78e4 7cbe 2049 8dbe 8b16 7fbe 179e 5cbe
00000090: e266 50be 5316 6bbe e113 97be bdef 7cbe
000000a0: 6ff1 75be fc23 a4be 9041 6abe 0705 69be
000000b0: bf26 92be 9e36 87be 544d 8ebe 1ab6 95be
000000c0: 4e2d 82be caeb 54be 0bc5 62be dbff 98be
000000d0: 0cb9 7abe 95fa 82be eed8 7dbe 8bb7 81be
000000e0: f787 7bbe f395 7fbe 1bb3 88be 34b8 8dbe
000000f0: aebe 72be 8c25 83be 71ce 7bbe 33a3 88be
00000100: 4a56 81be 2ea3 65be d1ff 87be bb82 59be
00000110: fa06 82be 0074 7dbe c259 69be 1013 67be
00000120: c68b 7ebe 346a 7ebe a4d0 6ebe ef8b 96be
00000130: 234a 59be 0a16 66be 650f 93be 2620 9bbe
00000140: 328c 60be 21a0 7ebe 8f2d 7dbe 205c 7cbe
00000150: d377 9dbe 5400 80be 408f 8ebe 33fe 89be
00000160: da76 78be 0ee1 81be ab4d a3be 632e 90be
00000170: 1db5 4ebe 20fd 7dbe 0e85 7cbe 9b02 85be
00000180: a2dc a6be 1248 5abe a2c7 90be 1878 62be
00000190: 85ae 91be 3515 87be 8dc7 77be 68bd 72be
000001a0: 28fb 81be 21ab 60be 1440 7dbe 23cd 93be
000001b0: 6869 8fbe 8dfa 7abe 2b25 93be 2ae4 31be
000001c0: fd60 4ebe 105f 81be 5a12 8fbe 99ee 7bbe
000001d0: 68e0 71be ed45 80be de1e 74be 675b 62be
000001e0: 8197 8bbe 6025 85be 0f08 7abe 1bab 83be
000001f0: 26ce 75be 724a 60be 619d 6dbe a57f 95be

net.3.weight f4 [64, 128]
0.014650589 -0.021709822 0.0125028035 -0.023970412 -0.0067694914 -0.0102163665 0.024902783 0.006251783
-0.0386486 -0.035034988 -0.022851432 0.009073327 0.04072005 0.02410573 -0.0456874 0.030280331
-0.032530773 0.024775146 -0.020658929 0.028701205 0.028277082 0.030662773 0.042391695 0.033119887
-0.049769435 0.0024945727 -0.0032582262 0.0010175622 -0.0047388035 -0.0051952447 0.031881258 -0.019151624
0.018843083 -0.06188305 0.030015768 -0.0018984961 0.0022859923 0.040035233 0.04059464 -0.038330413
-0.005732846 0.020746047 0.019120593 0.0043384335 -0.043161012 -0.015129769 -0.025237296 0.03425
0.015620736 0.0012519627 0.032545958 -0.0050361487 0.0293434 -0.0136440825 0.0068210834 0.033313967
0.0006965082 0.0260337 -0.038948 -0.007230241 -0.0068369275 0.045564864 0.0035727327 -0.0075391657
-0.03600683 0.03387776 0.021146957 0.052922446 0.050228123 0.0062878095 0.046377175 0.027247615
-0.022956038 -0.0048460998 -0.00013880881 0.05567605 0.015005724 -0.016780784 0.017302658 0.013756261
-0.005066471 0.032423567 -0.018751107 -0.019391287 0.013084136 0.03026762 -0.05587795 -0.05255341
-0.00055392075 0.009559224 -0.036605287 -0.007419348 -0.02237903 -0.026018085 -0.02074128 0.03185193
-0.022831263 -0.041592855 0.011517366 0.028606374 0.0054079657 0.030812275 0.04917253 -0.044904266
0.04700345 -0.0053954143 0.007337908 -0.0076443893 0.0020753124 -0.049853787 0.010042024 -0.026152248
-0.022274604 -0.040373594 0.015266597 0.01188386 -0.059603356 0.009454302 -0.030793602 0.0026968927
-0.0081891725 -0.01256512 0.008833127 0.02197255 0.03314562 -0.001469559 0.015037607 0.027716383
0.013481075 0.014873957 -0.022212792 0.006713899 -0.0009945674 -0.021032272 -0.0013134258 -0.063980624
-0.043020256 -0.020891145 0.044387497 0.0022436474 -0.02131399 -0.011997993 0.045792416 0.03757063
-0.0072529214 -0.018301606 0.014818071 0.0010021187 0.005782729 0.009690688 0.055086706 0.029515343
0.017639542 0.005294005 0.012355398 -0.009940526 -0.045458004 0.036404714 0.00023199483 0.054663684
0.041999325 0.033879235 -0.0040120827 -0.02193075 0.0032131702 -0.039544802 0.001944831 -0.022764506
-0.006564699 -0.027567813 -0.0056476537 -0.030112155 0.04637444 -0.041533157 -0.00043914374 -0.049323056
-0.040237907 0.012360288 -0.02052809 -0.020340959 -0.036619794 0.060113437 0.050637633 0.030507347
0.0070079677 -0.02442408 0.004149931 0.006532707 -0.03322413 -0.03927963 -0.007242903 0.03962884
-0.031464003 0.06555956 -0.035253726 0.020449128 -0.053518515 0.008621921 -0.027049076 0.030958707
0.005297089 -0.034603976 -0.04950779 0.0437544 -0.00492871 -0.0028475178 -0.0073731304 -0.0025441814
-0.0282537 0.02462839 0.015745029 0.027844915 0.014929039 -0.0003427199 0.026840337 0.011423045
-0.041436434 0.0112789 0.03602757 0.0020116714 0.015338334 -0.010905947 0.023603959 0.042689286
-0.01592617 0.014550215 0.05536964 0.02372113 -0.008175222 -0.019121736 -0.022578286 -0.014208204
-0.0027422805 -0.018692901 0.008670337 -0.03872836 0.025590355 -0.01976816 -0.017484117 -0.005732603
-0.0007329889 0.028113337 0.010218929 -0.031268325 -0.012812359 -0.060395613 -0.0097167315 -0.011626446
0.032246925 0.015534792 -0.007516535 0.0033923243 -0.026905658 0.012737691 0.02221137 -0.024551135
00000000: 0609 703c ccd8 b1bc 8fd8 4c3c 995d c4bc
00000010: 9cd2 ddbb 8c62 27bc ec00 cc3c c2db cc3b
00000020: ff4d 1ebd d980 0fbd ed32 bbbc 4ba8 143c
00000030: 11ca 263d 6179 c53c b622 3bbd 750e f83c
00000040: fd3e 05bd 3ff5 ca3c ea3c a9bc ca1e eb3c
00000050: 57a5 e73c 7f30 fb3c eaa2 2d3d b8a8 073d
00000060: 09db 4bbd fc7b 233b f787 55bb b95f 853a
00000070: f747 9bbb df3c aabb ec95 023d dee3 9cbc
00000080: cf5c 9a3c 1579 7dbd a1e3 f53c f5d6 f8ba
00000090: 96d0 153b fcfb 233d 9146 263d 5a00 1dbd
000000a0: 99da bbbb 9df3 a93c caa2 9c3c 6b29 8e3b
000000b0: 9ac9 30bd dae2 77bc 72be cebc ba49 0c3d
000000c0: 1eee 7f3c e618 a43a e94e 053d 4706 a5bb
000000d0: 9261 f03c 6e8b 5fbc 6583 df3b 3a74 083d
000000e0: e095 363a a044 d53c f087 1fbd a8eb ecbb
000000f0: 4e08 e0bb 39a2 3a3d 8224 6a3b 1b0b f7bb
00000100: e67b 13bd 68c3 0a3d 623c ad3c 35c5 583d
00000110: 01bc 4d3d f809 ce3b fef5 3d3d 6436 df3c
00000120: 4d0e bcbc 08cc 9ebb 358d 11b9 920c 643d
00000130: 91da 753c db77 89bc 4ebe 8d3c f161 613c
00000140: a404 a6bb 93ce 043d ec9b 99bc 7ada 9ebc
00000150: d85e 563c cdf3 f73c 47e0 64bd 3f42 57bd
00000160: fe34 11ba 4b9e 1c3c 6def 15bd 011e f3bb
00000170: 3a54 b7bc e123 d5bc 9ee9 a9bc 2b77 023d
00000180: a108 bbbc 455d 2abd 56b3 3c3c ea57 ea3c
00000190: 4e35 b13b 066a fc3c 2369 493d 89ed 37bd
000001a0: b186 403d 04cc b0bb d572 f03b c97d fabb
000001b0: f701 083b 7c33 4cbd 4d87 243c 3d3d d6bc
000001c0: 3b79 b6bc c85e 25bd c020 7a3c 86b4 423c
000001d0: a622 74bd 37e6 1a3c dd42 fcbc 5abe 303b
000001e0: e12b 06bc efdd 4dbc d2b8 103c c7ff b33c
000001f0: b4c3 073d 389e c0ba 4c60 763c 780d e33c
00000200: badf 5c3c e6b1 733c 9af7 b5bc 4400 dc3b
00000210: 255c 82ba df4b acbc 4227 acba 4608 83bd
00000220: 0236 30bd e823 abbc aacf 353d 280a 133b
00000230: ad9a aebc 3b93 44bc d490 3b3d a9e3 193d
00000240: eaa9 edbb 40ed 95bc 7fc7 723c 8659 833a
00000250: 0c7d bd3b b1c5 1e3c 99a2 613d 29ca f13c
00000260: cd80 903c 5579 ad3b 4c6e 4a3c 97dd 22bc
00000270: 2c32 3abd 1c1d 153d a343 7339 07e7 5f3d
00000280: 7c07 2c3d f4c4 0a3d ca77 83bb 1ea8 b3bc
00000290: 0d94 523b bbf9 21bd b3e9 fe3a a17c babc
000002a0: b01c d7bb e5d5 e1bc f40f b9bb c4ad f6bc
000002b0: 20f3 3d3d ac1e 2abd e03c e6b9 f906 4abd
000002c0: 81d0 24bd ce82 4a3c 862a a8bc 15a2 a6bc
000002d0: a3fe 15bd 8239 763d 6869 4f3d 8bea f93c
000002e0: 18a3 e53b 0215 c8bc 25fc 873b 5110 d63b
000002f0: 0616 08bd ade3 20bd e055 edbb da51 223d
00000300: 66e0 00bd 1744 863d 3666 10bd ee84 a73c
00000310: 3b36 5bbd f542 0d3c 0696 ddbc 1d9d fd3c
00000320: 3493 ad3b e6bc 0dbd aec8 4abd d037 333d
00000330: 0481 a1bb 6c9d 3abb 4d9a f1bb 48bc 26bb
00000340: 4e74 e7bc 7ac1 c93c b8fb 803c 051b e43c
00000350: ee98 743c 16af b3b9 44e0 db3c b927 3b3c
00000360: 40b9 29bd 23cb 383c a591 133d 3fd6 033b
00000370: a34d 7b3c dbae 32bc 175d c13c f6da 2e3d
00000380: 9977 82bc 0664 6e3c 47cb 623d d152 c23c
00000390: 5ef1 05bc 30a5 9cbc 19f6 b8bc 87c9 68bc
000003a0: d5b7 33bb db21 99bc 070e 0e3c a1a1 1ebd
000003b0: dda2 d13c d6f0 a1bc da3a 8fbc 8fd8 bbbb
000003c0: 0d26 40ba f14d e63c 4b6d 273c 3713 00bd
000003d0: eeea 51bc 6461 77bd ed32 1fbc d97c 3ebc
000003e0: 5a15 043d a485 7e3c 444d f6bb c251 5e3b
000003f0: 4169 dcbc c0b1 503c 9ef4 b53c 761f c9bc

net.3.bias f4 [64]
4.3438624e-05 -5.93894e-05 5.7126814e-05 2.1276535e-06 -8.915774e-05 1.5314119e-05 3.4648885e-05 3.3446584e-05
-2.4481626e-05 -1.6747799e-07 4.697661e-06 4.0586943e-05 -3.074235e-05 1.2407447e-05 -3.1063744e-05 6.148515e-05
3.5069705e-05 1.6746902e-05 -7.6412514e-05 -1.1975647e-05 -2.8599716e-05 1.2626139e-05 3.961565e-06 0.00010258106
-9.0929425e-06 -2.5585015e-05 5.3402478e-06 -4.652143e-05 6.176363e-05 1.4239898e-06 -3.178072e-05 -5.9196796e-06
5.974315e-06 -3.5837194e-05 2.3535209e-05 -3.8499562e-05 -1.1521215e-06 -9.02365e-06 -8.341781e-06 1.9299532e-05
-1.3245148e-05 -1.1640197e-05 2.1595088e-07 4.8680226e-06 4.1788182e-05 1.5775837e-05 1.2938134e-05 3.1704953e-06
0.00014943394 1.8313678e-05 -5.3436943e-06 -1.0083638e-05 2.8045737e-05 2.3199868e-07 1.7689954e-05 4.173679e-05
1.9296487e-05 -1.6555176e-05 6.391857e-05 9.094729e-07 0.00011305446 3.277653e-05 -3.195266e-05 0.00013020901
00000000: de31 3638 e218 79b8 739b 6f38 cfc8 0e36
00000010: 32fa bab8 d276 8037 f553 1138 ff48 0c38
00000020: e45d cdb7 00d4 33b4 9aa0 9d36 e63b 2a38
00000030: 59f1 00b8 9429 5037 714a 02b8 97f1 8038
00000040: cf17 1338 b37b 8c37 a83f a0b8 03eb 48b7
00000050: 6ce9 efb7 dbd4 5337 96ed 8436 ca20 d738
00000060: e48d 18b7 679f d6b7 6130 b336 0120 43b8
00000070: 1987 8138 eb1f bf35 4a4c 05b8 a9a1 c6b6
00000080: fa76 c836 e54f 16b8 7a6d c537 977a 21b8
00000090: 98a2 9ab5 4864 17b7 adf3 0bb7 6ee5 a137
000000a0: 7a37 5eb7 444a 43b7 20e0 6734 ff57 a336
000000b0: b845 2f38 5a56 8437 dd10 5937 b2c4 5436
000000c0: 5eb1 1c39 53a0 9937 fc4d b3b6 e52c 29b7
000000d0: c343 eb37 501b 7934 e364 9437 890e 2f38
000000e0: e4de a137 f8df 8ab7 050c 8638 8022 7435
000000f0: a717 ed38 8879 0938 e804 06b8 b788 0839

net.5.weight f4 [1, 64]
1.685664e-05 0.00015976126 -0.00011896891 -0.0002501983 -0.00038802205 0.000115938514 0.00028339666 4.289898e-05
-7.2900904e-05 0.00030920614 0.00017995194 0.00019767028 -0.00022075087 2.0956184e-05 -0.00028757122 0.00018794388
0.00012796858 0.00013196054 3.3186796e-05 -7.672481e-05 -0.00013600782 0.00019218182 0.00011914898 -6.714136e-05
3.9666058e-05 -5.1318355e-05 0.00011470282 0.00010056819 -0.00019477378 4.4827626e-05 -0.000109557186 -9.759077e-05
-1.1857253e-05 9.51008e-05 -9.081785e-05 -0.00025535407 9.538266e-05 0.00018605991 -2.1457525e-05 3.1412383e-05
-0.000121158904 4.219117e-05 5.2362062e-05 -0.00018678611 7.806171e-05 -2.3853234e-05 8.484129e-06 5.8757174e-05
0.0002891149 3.9898463e-05 0.00011378784 1.0730655e-05 -3.3219876e-05 -0.00016265272 0.0001881747 1.411126e-05
0.00019672154 0.00017467995 9.443345e-05 2.2915561e-05 -0.00015814684 -0.00012410713 -9.774139e-05 -0.00029381472
00000000: 5c67 8d37 9685 2739 f27e f9b8 0c2d 83b9
00000010: 706f cbb9 0424 f338 db94 9439 6eee 3338
00000020: 60e2 98b8 f21c a239 7bb1 3c39 b645 4f39
00000030: 5c79 67b9 10cb af37 28c5 96b9 cd12 4539
00000040: 4e2f 0639 e35e 0a39 0d32 0b38 52e7 a0b8
00000050: 529d 0eb9 6a84 4939 9fdf f938 3ece 8cb8
00000060: 1b5f 2638 aa3e 57b8 9c8c f038 23e8 d238
00000070: 303c 4cb9 4c05 3c38 11c2 e5b8 a5a9 ccb8
00000080: 84ee 46b7 da70 c738 7675 beb8 0be1 85b9
00000090: 2d08 c838 1419 4339 afff b3b7 cac0 0338
000000a0: b116 feb8 6df6 3038 569f 5b38 04dc 43b9
000000b0: 10b5 a338 6e18 c8b7 0e57 0e37 0972 7638
000000c0: 5894 9739 a658 2738 62a1 ee38 d007 3437
000000d0: 9255 0bb8 c28d 2ab9 c350 4539 66bf 6c37
000000e0: 0947 4e39 4b2a 3739 930a c638 cb3a c037
000000f0: 38d4 25b9 c122 02b9 82fa ccb8 250b 9ab9
