experiments/project/models/lstm_best.pt (torch, 92969 bytes, 7 tensors)

lstm.weight_ih_l0 f4 [256, 13]
0.07820673 0.0960489 -0.03585616 0.031464756 0.026178794 -0.14679845 0.032170236 0.041422628
0.03754178 -0.22680588 0.26666892 -0.085770026 0.08433503 -0.07491498 0.036262892 -0.04800008
0.04575691 0.07943001 0.08614175 0.1367292 0.06575981 0.026857633 0.07052723 -0.06808725
0.11637744 0.09956275 -0.08115506 -0.022704367 0.006733132 0.120114975 -0.027696975 0.122575514
0.12482384 -0.078350425 -0.020673212 0.10956894 0.07838153 0.0147219 0.07329642 -0.071175374
0.027898392 0.021314755 -0.105652325 0.0022368156 -0.057276234 0.014261088 0.02138412 -0.11119026
0.034737695 -0.03399351 0.10339081 0.053941056 0.02364422 -0.08615179 0.08880955 -0.06155171
0.041705236 0.1250594 0.11336355 0.037848864 0.00028681083 -0.11462516 0.09164452 0.09857182
0.029700924 -0.10694891 0.005725082 0.04380055 0.03825278 -0.061768435 0.10588707 0.10173692
0.03884722 0.080047496 0.07961275 0.08581858 -0.023598775 -0.08878536 -0.04976767 -0.114726044
0.06850784 0.09438148 -0.0006185289 0.04819139 0.027226519 -0.001440931 0.1344772 -0.0902526
-0.07628465 0.040042564 0.01369737 0.1010334 -0.11989952 0.041405603 0.07953639 -0.019337885
0.04436179 -0.16483343 0.117817655 -0.0687021 -0.116396904 0.090443276 -0.013540551 -0.06307917
-0.075716734 0.008310944 -0.0880898 -0.00913914 -0.014330357 0.0662245 0.04362879 -0.009985562
-0.031561814 -0.12588997 0.07584924 -0.018393338 -0.0964742 0.035585795 0.040766444 -0.070758864
-0.06116454 -0.020037353 0.038100515 -0.07387429 0.06603908 -0.054077476 -0.14158046 0.044234335
-0.0065447986 0.07711758 -0.045316562 -0.09416921 -0.09469752 0.034177918 -0.03137431 -0.02736602
0.016526451 0.10250914 -0.086183876 0.08289131 0.026794765 0.045767024 0.08991208 0.026353184
-0.06386954 0.028453914 0.029130718 -0.113224514 0.02592349 0.035270046 0.10963732 -0.0603549
0.07223145 0.055032138 0.11199249 0.174987 -0.104002394 -0.0936804 -0.00041101905 -0.060954746
0.0049577337 -0.020404026 0.09432712 -0.08621253 -0.009892619 0.12001368 -0.07849859 0.006194338
-0.086216554 -0.041540492 -0.04389153 0.036564525 0.061676137 -0.066097215 0.01735313 0.030959055
0.1138285 -0.0077735623 0.029490514 -0.06941935 0.02100429 -0.106932305 0.010972291 -0.07780083
0.0033123998 -0.057649877 -0.06974177 -0.005676061 -0.09800458 0.09451172 0.03966684 0.028042004
-0.16571629 0.119587615 -0.056888282 -0.0900086 0.052296735 0.081493534 0.08182635 0.02601124
-0.07073658 0.037872814 0.094016925 -0.055737823 -0.09833197 0.5593641 -0.07530098 -0.021892186
-0.113120645 0.032480996 -0.061236665 -0.062381018 -0.03202128 0.10776008 0.11675531 -0.055727232
0.11090696 0.028016603 -0.0035663736 0.028464362 0.034395166 -0.0052335095 0.001702112 0.03679886
-0.118494995 -0.017421866 -0.12679175 0.007626401 -0.108643174 -0.05066024 0.04886706 -0.042906158
0.03496103 -0.016620276 -0.013076932 0.05244888 -0.083900675 -0.13614735 -0.05393414 -0.055740673
0.027344888 0.13228947 0.052986056 -0.087490425 0.29671556 0.01642923 -0.02562595 -0.04061363
0.08361638 -0.09426677 -0.051090263 -0.049738456 0.03797031 0.06778394 0.12291813 -0.021735974
00000000: da2a a03d 49b5 c43d e9dd 12bd 30e1 003d
00000010: e974 d63c 5552 16be f0c4 033d c6aa 293d
00000020: 69c5 193d cd3f 68be d488 883e 32a8 afbd
00000030: d8b7 ac3d 066d 99bd 6688 143d bb9b 44bd
00000040: 996b 3b3d 33ac a23d 166b b03d bd02 0c3e
00000050: 14ad 863d 8a04 dc3c 9570 903d 5471 8bbd
00000060: 4c57 ee3d 8ee7 cb3d a034 a6bd 82fe b9bc
00000070: 9ba1 dc3b d7fe f53d c4e4 e2bc df08 fb3d
00000080: a4a3 ff3d 3076 a0bd de5a a9bc ae65 e03d
00000090: 7f86 a03d 2034 713c 6f1c 963d 65c4 91bd
000000a0: 2b8b e43c 489c ae3c 3f60 d8bd 8a97 123b
000000b0: 7c9a 6abd 57a7 693c c02d af3c b8b7 e3bd
000000c0: 1d49 0e3d c73c 0bbd 90be d33d 4cf1 5c3d
000000d0: 86b1 c13c 5a70 b0bd c8e1 b53d a51d 7cbd
000000e0: 1cd3 2a3d 920f 003e 262b e83d 6907 1b3d
000000f0: 195f 9639 99c0 eabd 1fb0 bb3d 06e0 c93d
00000100: 5a4f f33c 0808 dbbd 7899 bb3b 3568 333d
00000110: f2ae 1c3d e600 7dbd 52db d83d 725b d03d
00000120: 431e 1f3d f1ef a33d 020c a33d a7c1 af3d
00000130: 3852 c1bc 19d5 b5bd 2fd9 4bbd 7df5 eabd
00000140: d74d 8c3d 144b c13d c624 22ba 5664 453d
00000150: 260a df3c 9fdd bcba 64b4 093e 5bd6 b8bd
00000160: 203b 9cbd ac03 243d ef6a 603c 99ea ce3d
00000170: e18d f5bd ec98 293d fae3 a23d 7c6a 9ebc
00000180: b5b4 353d 18ca 28be 624a f13d b0b3 8cbd
00000190: 8061 eebd 533a b93d 30d9 5dbc a72f 81bd
000001a0: 6011 9bbd a02a 083c 6d68 b4bd 55bc 15bc
000001b0: e0c9 6abc b6a0 873d 1ab4 323d 7c9a 23bc
000001c0: f646 01bd 4de9 00be d956 9b3d a0ad 96bc
000001d0: 4494 c5bd 69c2 113d b7fa 263d 06ea 90bd
000001e0: ab87 7abd 6025 a4bc 490f 1c3d 674b 97bd
000001f0: 7f3f 873d 5880 5dbd 78fa 10be 102f 353d
00000200: c075 d6bb d2ef 9d3d dc9d 39bd c9db c0bd
00000210: c6f0 c1bd 25fe 0b3d 5982 00bd b42e e0bc
00000220: 7b62 873c 50f0 d13d 2c81 b0bd ebc2 a93d
00000230: b280 db3c 3476 3b3d d323 b83d a2e2 d73c
00000240: 09ce 82bd 2f18 e93c 8ba3 ee3c 41e2 e7bd
00000250: 805d d43c 5377 103d 8889 e03d b336 77bd
00000260: 15ee 933d 6169 613d 525c e53d cb2f 333e
00000270: 35ff d4bd 82db bfbd 0b7e d7b9 afab 79bd
00000280: 7c74 a23b 5826 a7bc 942e c13d 3290 b0bd
00000290: a714 22bc bbc9 f53d dec3 a0bd e0f9 ca3b
000002a0: 4e92 b0bd 5d26 2abd 9bc7 33bd afc4 153d
000002b0: 1ea0 7c3d fa5d 87bd 2728 8e3c d89d fd3c
000002c0: eb1e e93d 5eb9 febb 1796 f13c bb2b 8ebd
000002d0: 3011 ac3c 53ff dabd 20c5 333c 0b56 9fbd
000002e0: d914 593b 4722 6cbd c6d4 8ebd 40fe b9bb
000002f0: a0b6 c8bd 5c8f c13d b279 223d 58b8 e53c
00000300: 88b1 29be 5aea f43d b003 69bd 6e56 b8bd
00000310: 1a35 563d 15e6 a63d 9394 a73d 8615 d53c
00000320: 57de 90bd 8620 1b3d f28b c03d 584d 64bd
00000330: 4662 c9bd 7c32 0f3f 6637 9abd 3e57 b3bc
00000340: ccab e7bd cb0a 053d 4cd3 7abd 3d83 7fbd
00000350: bf28 03bd 51b1 dc3d 681d ef3d 3d42 64bd
00000360: 3023 e33d 1383 e53c d2b9 69bb 182e e93c
00000370: f2e1 0c3d dc7d abbb 6719 df3a 67ba 163d
00000380: 81ad f2bd 4db8 8ebc b2d5 01be e3e6 f93b
00000390: 5080 debd 1d81 4fbd d428 483d 5ebe 2fbd
000003a0: 4c33 0f3d 3f27 88bc a140 56bc a3d4 563d
000003b0: 1ed4 abbd 366a 0bbe 0bea 5cbd 5550 64bd
000003c0: 6302 e03c e476 073e e807 593d 2e2e b3bd
000003d0: 1aeb 973e 9896 863c 83ed d1bc 7a5a 26bd
000003e0: 113f ab3d f00e c1bd 0644 51bd 8dba 4bbd
000003f0: c186 1b3d 4ed2 8a3d 80bc fb3d a40f b2bc

lstm.weight_hh_l0 f4 [256, 64]
-0.0058058626 0.012612092 -0.12788025 -0.037933715 0.04577131 -0.11297146 -0.0619944 -0.047399107
-0.028235927 -0.015514475 -0.023381209 0.008838632 0.08073433 0.072789155 0.09007771 -0.05097749
0.05081603 0.10310216 -0.043604255 0.021423467 -0.021180036 -0.105812825 -0.13239211 0.017013824
0.0003529656 -0.01449251 0.04217285 0.19298913 -0.10139998 -0.06696345 -0.048668694 0.02487006
-0.119726285 -0.06350967 0.051102243 0.04888001 0.04417125 0.11196111 -0.07185458 -0.025693664
0.046744507 0.11735379 0.029330337 -0.08739565 -0.03736161 -0.010756671 0.10167156 0.11647194
-0.071640946 -0.011947298 0.16893631 0.03805759 0.017356606 0.06326326 -0.09729856 0.059165858
-0.049849845 -0.05342001 0.103665374 0.05301724 0.08333455 0.13605838 0.015787479 0.020791892
-0.0606354 0.10530673 0.007939685 -0.07165337 0.1317327 -0.11329319 0.037503023 0.03324155
0.11678974 -0.013108812 -0.11406583 0.071602724 0.0116622 0.08988709 -0.040881198 0.1023723
0.08238152 0.11847854 -0.05990526 -0.088871844 0.072922766 0.050440174 0.020004679 -0.033781774
-0.03656113 0.0828789 0.018445505 -0.07131106 0.11694821 -0.03784044 -0.05978901 -0.0611146
-0.019887222 0.04064503 -0.018199313 -0.048415147 -0.10223043 -0.03103105 0.09916399 0.06709415
0.012009704 0.076767296 -0.07039104 0.083278984 0.012819334 0.011790254 0.01744281 -0.087856196
0.0018745994 0.047187425 0.056009974 -0.07166232 -0.02984226 -0.091916144 0.05694979 0.11334569
-0.041284144 0.024369054 -0.049334835 0.02074484 0.12333931 0.042418297 -0.11618399 0.027248822
0.043180536 -0.093841195 -0.11853882 -0.08734406 -0.05318187 -0.04072051 0.02224714 0.0895444
-0.044812933 -0.057800587 -0.09780024 0.00039506907 0.10412011 -0.052155685 0.08413643 -0.00041695908
0.01572206 0.030238904 -0.08396506 0.11611271 0.06647507 -0.02013806 0.008075501 0.025238778
-0.124547176 0.07294194 -0.073463835 0.03099857 -0.095309414 0.07830742 -0.026279094 0.04644275
-0.073319405 -0.11872595 -0.04416944 0.030641522 -0.09053609 0.018484207 0.05337915 0.026847037
0.034097224 -0.07563978 0.08174923 0.02699608 0.09147337 0.0694841 -0.027929464 -0.020726684
-0.06656693 0.09272989 -0.017623998 0.021013856 0.0024729492 0.013964876 -0.09176426 -0.11679523
-0.02045381 -0.00044029375 -0.035139397 0.03205265 -0.016514672 0.12222742 -0.0349485 -0.04011871
-0.03978014 0.017845035 0.042826135 0.08978682 0.13493976 0.07183614 0.08015505 -0.11577402
-0.041851778 -0.03288758 -0.12567267 -0.0037833934 0.095528945 0.06411819 -0.027945416 0.03699319
0.04257662 -0.0068546734 -0.11390874 -0.01670603 -0.01429152 -0.015954724 0.07996908 -0.037898008
0.051914785 -0.0012992651 -0.07140788 0.045970593 -0.038871083 0.011053429 -0.0890849 0.025930068
0.028174782 -0.024306905 0.046677753 -0.07693812 0.088945605 0.10674988 -0.100972116 0.10020651
0.05429102 0.022295257 -0.01712573 0.009884086 -0.083510496 0.030456373 0.039451018 -0.025591679
0.095549695 -0.087957956 0.09831893 0.03131776 0.10239486 -0.024688322 0.1067247 -0.0824405
0.06590419 -0.095120184 -0.109199405 0.12964393 0.040633146 -0.109089404 -0.12538922 -0.007883074
00000000: 1b3f bebb f3a2 4e3c 0af3 02be 6260 1bbd
00000010: b27a 3b3d 955d e7bd d7ed 7dbd 9125 42bd
00000020: 084f e7bc 6d30 7ebc f389 bfbc e9cf 103c
00000030: 0a58 a53d 7b12 953d aa7a b83d c6cd 50bd
00000040: 7824 503d 3a27 d33d 609a 32bd 4480 af3c
00000050: c181 adbc 65b4 d8bd cc91 07be 9360 8b3c
00000060: 3e0e b939 fe71 6dbc 70bd 2c3d f19e 453e
00000070: cbaa cfbd 2224 89bd d358 47bd 4cbc cb3c
00000080: 0e33 f5bd 5c11 82bd 9650 513d 6836 483d
00000090: eaec 343d de4b e53d 7e28 93bd 857b d2bc
000000a0: 2b77 3f3d 2f57 f03d 2d46 f03c 7efc b2bd
000000b0: 7d08 19bd c03c 30bc 2e39 d03d d788 ee3d
000000c0: 7db8 92bd 9abe 43bc a4fd 2c3e 47e2 1b3d
000000d0: 712f 8e3c 2b90 813d 7844 c7bd e657 723d
000000e0: 5a2f 4cbd f1ce 5abd 834e d43d 9b28 593d
000000f0: 4eab aa3d e352 0b3e be54 813c c253 aa3c
00000100: d35c 78bd 0eab d73d 7415 023c 01bf 92bd
00000110: f0e4 063e 4306 e8bd c59c 193d 4b28 083d
00000120: 762f ef3d 58c6 56bc 599b e9bd 73a4 923d
00000130: d012 3f3c b916 b83d 0b73 27bd 92a8 d13d
00000140: a4b7 a83d e0a4 f23d 385f 75bd 7102 b6bd
00000150: 8858 953d 5b9a 4e3d dae0 a33c c25e 0abd
00000160: 20c1 15bd 6abc a93d 071b 973c 880b 92bd
00000170: 8b82 ef3d 94fe 1abd 52e5 74bd 4e53 7abd
00000180: 87ea a2bc 677b 263d ba16 95bc f64e 46bd
00000190: 305e d1bd d434 febc 7d16 cb3d a868 893d
000001a0: 59c4 443c 2c38 9d3d 2d29 90bd 2c8e aa3d
000001b0: 2f08 523c e92b 413c 39e4 8e3c f3ed b3bd
000001c0: 1eb5 f53a 9a47 413d b76a 653d b2c3 92bd
000001d0: c177 f4bc 883e bcbd 2f44 693d c921 e83d
000001e0: 9019 29bd 9ca1 c73c 5313 4abd 15f1 a93c
000001f0: 5299 fc3d cfbe 2d3d dff1 edbd ec38 df3c
00000200: 13de 303d d02f c0bd 7bc4 f2bd 71e1 b2bd
00000210: 3cd5 59bd 8dca 26bd a23f b63c 0e63 b73d
00000220: c48d 37bd 4fc0 6cbd 7e4b c8bd 4621 cf39
00000230: ed3c d53d 33a1 55bd b84f ac3d 4d9b dab9
00000240: 8dcb 803c 94b7 f73c e0f5 abbd 80cc ed3d
00000250: 1524 883d 93f8 a4bc 1b4f 043c 8ec1 ce3c
00000260: 9712 ffbd 9562 953d 3574 96bd b7f0 fd3c
00000270: 9531 c3bd a45f a03d 4147 d7bc c13a 3e3d
00000280: 7c28 96bd 9726 f3bd 04eb 34bd ee03 fb3c
00000290: fc6a b9bd 316c 973c 18a4 5a3d 51ee db3c
000002a0: 88a9 0b3d 07e9 9abd 246c a73d e226 dd3c
000002b0: 6456 bb3d ae4d 8e3d 55cc e4bc 02cb a9bc
000002c0: 3e54 88bd 2be9 bd3d 3460 90bc 4025 ac3c
000002d0: 3411 223b efcc 643c e6ee bbbd 5632 efbd
000002e0: c08e a7bc 3ad7 e6b9 54ee 0fbd a449 033d
000002f0: c749 87bc 5f52 fa3d 2926 0fbd 8453 24bd
00000300: 80f0 22bd c02f 923c 756a 2f3d 27e2 b73d
00000310: a62d 0a3e d31e 933d 5528 a43d ee1a edbd
00000320: c56c 2bbd 21b5 06bd 56b0 00be cff2 77bb
00000330: aea4 c33d 6650 833d c9ed e4bc 2c86 173d
00000340: d264 2e3d 2b9d e0bb fc48 e9bd 16db 88bc
00000350: fb26 6abc 7bb3 82bc d4c6 a33d f13a 1bbd
00000360: 99a4 543d 1a4c aaba 4b3e 92bd a94b 3c3d
00000370: 4937 1fbd 7119 353c 2572 b6bd 4b6b d43c
00000380: cdce e63c 461f c7bc 2c31 3f3d bc91 9dbd
00000390: 1d29 b63d ae9f da3d 78ca cebd 1239 cd3d
000003a0: 4360 5e3d 8ba4 b63c 424b 8cbc ddf0 213c
000003b0: 8d07 abbd a57f f93c 6497 213d a4a5 d1bc
000003c0: 8faf c33d 4d23 b4bd 6f5b c93d 0d47 003d
000003d0: 65b4 d13d 2a3f cabc 7b92 da3d 91d6 a8bd
000003e0: c7f8 863d 5fce c2bd f0a3 dfbd 61c1 043e
000003f0: f16e 263d 446a dfbd 0866 00be 0228 01bc

lstm.bias_ih_l0 f4 [256]
-0.016664594 0.06384891 -0.0517571 -0.03542947 -0.01277179 0.0903661 -0.062022485 -0.13156912
0.14160986 -0.064705536 0.11857106 0.11365368 0.12463705 -0.095018215 -0.04465865 0.058215372
-0.08684742 0.0271105 0.051658403 0.04164665 0.09278764 0.08690878 0.10506479 -0.001712097
-0.04849245 0.038772848 0.14353848 -0.07221348 0.048255473 0.11163587 0.029892985 0.14674339
0.0018127874 0.0267189 0.06932119 0.07251038 0.022133078 0.0012998302 -0.013702747 0.14476722
0.09114804 -0.047141988 0.110673584 -0.03749084 -0.059123304 -0.05514833 0.11134355 -0.041265033
0.13435552 0.046730954 0.041189488 -0.039041426 0.08467251 0.043782 0.038342644 0.4070229
-0.0053107482 0.07895595 0.030162908 -0.20458746 -0.013715692 0.07924411 0.03123222 -0.08823303
-0.16365308 0.14766812 -0.08827846 -0.07325273 -0.03884019 -0.08299135 0.12377968 -0.09094427
0.13515459 -0.08114239 -0.012759952 0.035921298 -0.051485445 0.09815311 0.09776235 0.019115748
0.05267615 -0.05206424 0.082341276 0.04341646 -0.11939883 -0.11383001 0.12383594 -0.0029917606
-0.062653586 -0.08416151 -0.0055947956 0.108831294 0.077510014 -0.098475695 0.09261444 0.065815695
-0.06403547 -0.001135457 -0.08373533 -0.05252673 0.04483302 0.12457655 -0.050837882 -0.09298115
-0.051078174 0.0067552864 0.13359949 -0.07310763 0.05056489 -0.0021568993 0.17710385 -0.124003805
0.11666798 -0.018502165 0.11979018 0.029950049 -0.047733027 0.07113392 -0.032625347 -0.019222025
0.09772453 -0.054917082 -0.0021539482 -0.06857458 -0.004128849 0.040880535 0.09086292 -0.033559214
0.026111083 0.063541844 -0.020570323 0.08947779 0.00685242 -0.06306295 0.09541945 0.07570379
0.061911218 -0.035406906 -0.08160412 -0.12571426 -0.0722987 0.018107282 -0.10424503 -0.008819263
0.021921642 -0.025347002 -0.059424724 0.04454465 -0.10826869 -0.051703256 0.064009435 -0.016932355
0.10463948 0.104826264 0.08126849 0.14056103 -0.10934043 0.080911905 -0.06752412 -0.07433748
0.046836875 0.053848803 -0.10327003 0.047708467 0.09663136 -0.0024121108 -0.11898288 0.064764075
-0.01994865 -0.022375397 0.0243073 -0.07724515 -0.024382425 -0.06984058 0.02992715 0.025213748
0.0883313 -0.030383456 -0.035221234 0.0015168049 -0.11719335 -0.01917307 0.05937907 0.027968066
0.021791559 -0.029153153 -0.04207611 0.038088035 -0.010588421 0.030589573 0.048559286 0.11500181
-0.1723238 -0.028261505 0.15004987 0.10767695 -0.09861304 0.01341942 -0.18547875 0.0768693
0.048928387 -0.11030787 -0.059194632 -0.012329121 0.10184469 -0.017220173 -0.06399527 0.07411234
0.095063284 0.013397866 0.020198034 0.052922893 0.014183422 0.21245128 0.02361568 -0.07494959
-0.012639203 0.002917061 0.00869653 -0.033739455 -0.06224884 -0.13805628 -0.06580427 0.10784719
-0.09363689 0.03903733 0.06714716 0.1219859 -0.19074453 0.13309664 0.22628596 0.18931039
0.23619364 0.019997777 -0.13621426 -0.21597533 -0.04817941 0.07132242 -0.038656823 0.07657165
0.061654784 -0.1928172 0.10886695 0.13459994 0.016851231 0.14885202 -0.045531616 -0.047085088
0.090677656 0.15343 -0.112270154 -0.031477023 0.008667841 -0.021365555 -0.12489878 0.09309318
00000000: 3084 88bc 38c3 823d 41ff 53bd 7e1e 11bd
00000010: c540 51bc dd11 b93d 4a0b 7ebd 0eba 06be
00000020: 2d02 113e 5684 84bd 62d5 f23d 43c3 e83d
00000030: b641 ff3d e998 c2bd fdeb 36bd 3e73 6e3d
00000040: 0fdd b1bd d716 de3c c397 533d ad95 2a3d
00000050: 7207 be3d 3bfd b13d 352c d73d 7168 e0ba
00000060: 05a0 46bd 47d0 1e3d c0fb 123e a9e4 93bd
00000070: 88a7 453d 59a1 e43d 22e2 f43c e643 163e
00000080: 0d9b ed3a 98e1 da3c 45f8 8d3d 5280 943d
00000090: 6e50 b53c 105f aa3a 7d81 60bc dc3d 143e
000000a0: d3ab ba3d f517 41bd d5a8 e23d ff8f 19bd
000000b0: 472b 72bd 37e3 61bd 1608 e43d 8605 29bd
000000c0: 7e94 093e f568 3f3d 4fb6 283d e7e9 1fbd
000000d0: c868 ad3d c154 333d 2d0d 1d3d 4e65 d03e
000000e0: c905 aebb a8b3 a13d 3418 f73c 607f 51be
000000f0: c8b7 60bc bc4a a23d b6da ff3c 85b3 b4bd
00000100: ac94 27be 5036 173e 56cb b4bd 8705 96bd
00000110: e416 1fbd 5ef7 a9bd 3380 fd3d fd40 babd
00000120: f765 0a3e fb2d a6bd 1e0f 51bc 3622 133d
00000130: 67e2 52bd 7f04 c93d a137 c83d a198 9c3c
00000140: f2c2 573d 5041 55bd 8ba2 a83d 75d5 313d
00000150: 6087 f4bd b51f e9bd b39d fd3d 6a11 44bb
00000160: 8650 80bd df5c acbd 8c54 b7bb f1e2 de3d
00000170: 92bd 9e3d a0ad c9bd a4ac bd3d 61ca 863d
00000180: 0725 83bd 9dd3 94ba 6e7d abbd 4526 57bd
00000190: d4a2 373d fe21 ff3d 623b 50bd e76c bebd
000001a0: 5937 51bd 735b dd3b 4ece 083e 74b9 95bd
000001b0: 211d 4f3d c45a 0dbb b65a 353e b5f5 fdbd
000001c0: 9fef ee3d da91 97bc 8e54 f53d ce59 f53c
000001d0: b583 43bd a9ae 913d 28a2 05bd 8277 9dbc
000001e0: cc23 c83d bcf0 60bd 4129 0dbb d470 8cbd
000001f0: 4c4b 87bb 5972 273d 5716 ba3d 6375 09bd
00000200: e9e6 d53c 3a22 823d 1883 a8bc 2240 b73d
00000210: 448a e03b 2627 81bd 466b c33d 970a 9b3d
00000220: 9e96 7d3d d506 11bd 1020 a7bd 3dbb 00be
00000230: 5711 94bd b955 943c 6b7e d5bd ac7e 10bc
00000240: 0495 b33c 84a4 cfbc 5767 73bd 7374 363d
00000250: fabb ddbd cbc6 53bd 6117 833d b9b5 8abc
00000260: 394d d63d 27af d63d 1870 a63d 3bef 0f3e
00000270: e0ed dfbd 24b5 a53d 164a 8abd 403e 98bd
00000280: 06d8 3f3d 9090 5c3d 3d7f d3bd f469 433d
00000290: aae6 c53d 8114 1ebb 4cad f3bd 07a3 843d
000002a0: 5a6b a3bc 9c4c b7bc 1a20 c73c b532 9ebd
000002b0: a7bd c7bc 9408 8fbd c829 f53c 108d ce3c
000002c0: 0ae7 b43d bae6 f8bc 2444 10bd 87cf c63a
000002d0: 1103 f0bd d810 9dbc 7837 733d 491d e53c
000002e0: 3684 b23c 98d2 eebc 0058 2cbd 3302 1c3d
000002f0: 0e7b 2dbc fc96 fa3c 1ae6 463d 1286 eb3d
00000300: a675 30be ac84 e7bc aca6 193e bc85 dc3d
00000310: a2f5 c9bd 21dd 5b3c 24ee 3dbe a76d 9d3d
00000320: 2269 483d 18e9 e1bd 1276 72bd 1500 4abc
00000330: f393 d03d 5211 8dbc f40f 83bd 36c8 973d
00000340: 8ab0 c23d b982 5b3c 5976 a53c adc5 583d
00000350: 9561 683c d48c 593e ac75 c13c 2c7f 99bd
00000360: a914 4fbc 2a2c 3f3b e47b 0e3c 6232 0abd
00000370: a4f8 7ebd a05e 0dbe 64c4 86bd fdde dc3d
00000380: b3c4 bfbd 9be5 1f3d 7384 893d bed3 f93d
00000390: 8952 43be 7c4a 083e 82b7 673e 95da 413e
000003a0: bfdc 713e 61d2 a33c c07b 0bbe a328 5dbe
000003b0: c657 45bd 7d11 923d 9e56 1ebd 99d1 9c3d
000003c0: ba89 7c3d df71 45be a3f5 de3d 91d4 093e
000003d0: 980b 8a3c aa6c 183e 5c7f 3abd 4bdc 40bd
000003e0: 35b5 b93d c11c 1d3e e5ed e5bd 0dee 00bd
000003f0: 8f03 0e3c d106 afbc eeca ffbd a3a7 be3d

lstm.bias_hh_l0 f4 [256]
0.14853378 -0.08724309 0.07098245 0.12966077 0.03082209 -0.042726245 -0.10297998 0.009535537
-0.03032237 0.043426093 -0.016528927 0.012020297 0.06892781 -0.013324749 0.0046013338 -0.11582565
0.087706365 0.001316261 -0.035012018 0.099287756 -0.03772746 -0.039423794 0.10508739 0.07529045
0.09819592 -0.014580756 -0.048679315 0.013287002 0.011483084 -0.017123101 0.065391034 -0.07435917
-0.19096527 0.0073291166 0.052884113 -0.103665695 0.048248105 -0.007835677 0.12290841 0.08124502
-0.050836552 -0.08728433 -0.054448448 0.124899626 0.05842511 -0.115851596 0.087819435 0.0030974743
0.04097319 -0.038438108 -0.062499683 -0.023648798 -0.053203262 0.08592941 0.13341118 0.21462654
0.11785994 -0.01943715 0.045974758 -0.18917027 0.048124876 0.11070645 0.09494051 -0.046232924
0.002922712 0.05452872 0.09335069 0.0568325 -0.009811904 -0.03600698 -0.09281521 0.0836928
-0.013697681 -0.08894608 0.03384845 0.040004842 -0.05480049 0.08135509 0.09164826 0.10342271
0.0360603 0.11249245 0.15199105 0.03312886 -0.116022855 0.0780249 0.1674138 0.087865606
0.012832292 0.016768664 0.18744268 0.065120995 0.050555665 -0.07291533 -0.06933698 0.105093
0.065947965 -0.104691915 0.021415716 0.021488186 -0.05182836 0.11977565 -0.054335147 0.123683505
-0.065568075 0.11712881 0.074993245 0.08597206 -0.043466516 0.11877485 -0.010971092 0.11420388
0.077598415 -0.03354379 0.13617362 -0.106550954 0.13597392 0.12630199 -0.061640687 0.077137135
0.15033448 -0.022154206 0.0662976 -0.034587864 0.10657954 0.042373348 0.033347204 -0.02412375
-0.06542294 0.06648666 -0.12044323 0.06218771 -0.023638383 0.015528144 -0.11359823 -0.08042144
0.028555589 -0.03476766 0.06322536 -0.031316627 -0.0438241 0.12499047 0.027282668 0.17194974
0.0935732 0.072327666 0.0140225915 0.03687605 -0.045540508 0.04519922 0.11109336 0.10682083
-0.009715612 0.0924224 -0.05352166 0.086832695 -0.11815266 0.032318536 0.060731962 -0.07080397
-0.063520715 -0.12213324 0.031764485 -0.039358467 0.060179967 -0.07892596 0.09711215 0.015837459
0.07794577 0.112987325 -0.027443355 -0.12803902 0.04486932 -0.10254216 -0.11232457 0.0659714
-0.0024557651 -0.07602724 -0.012519898 0.0680595 -0.08608542 0.040072124 0.08642043 0.12326968
0.07123088 0.09600039 0.111214735 0.027846208 -0.018751247 -0.003636515 0.06834776 0.026862385
-0.02278445 -0.010701025 0.03354858 -0.04239309 0.040182404 0.1985583 -0.070987836 -0.021037428
0.007410486 -0.066570714 0.00020087647 0.02972754 0.1083983 -0.15986794 -0.060709186 -0.005556759
0.053019814 0.008882945 -0.026529657 0.07902017 0.09060823 0.06659906 0.050952952 -0.16537505
-0.032752387 0.03668722 -0.004222054 -0.08642665 -0.10306567 0.031050527 -0.03868535 0.15245272
-0.19775979 -0.06591446 -0.1291559 0.09486121 -0.108589396 0.108061574 0.22534592 -0.0011291871
0.25732195 0.035122585 0.011065733 -0.022170214 -0.079778485 0.20734362 0.027887514 0.22591172
0.22842905 -0.007178799 0.1449515 -0.06895744 0.03968884 0.028697409 0.14186908 0.0007336949
0.015280513 0.14674628 -0.021807894 -0.15271732 0.010778529 0.018964568 -0.042671897 -0.051578734
00000000: 3d19 183e 81ac b2bd 3f5f 913d cbc5 043e
00000010: 9c7e fc3c b701 2fbd 2be7 d2bd f13a 1c3c
00000020: 9e66 f8bc 8fdf 313d ac67 87bc c8f0 443c
00000030: 062a 8d3d 0c50 5abc c9c6 963b 0036 edbd
00000040: 659f b33d 6486 ac3a c368 0fbd 6157 cb3d
00000050: 1c88 1abd d87a 21bd 0f38 d73d e131 9a3d
00000060: f11a c93d 20e4 6ebc f663 47bd bab1 593c
00000070: 8c23 3c3c bf45 8cbc bceb 853d 9f49 98bd
00000080: 668c 43be 1629 f03b 039d 583d ae4e d4bd
00000090: ce9f 453d 3661 00bc 68b7 fb3d ca63 a63d
000000a0: fd39 50bd 20c2 b2bd 5605 5fbd 60cb ff3d
000000b0: 2b4f 6f3d 9a43 edbd adda b33d fffe 4a3b
000000c0: 81d3 273d 4771 1dbd abff 7fbd 20bb c1bc
000000d0: aaeb 59bd c2fb af3d f19c 083e 0fc7 5b3e
000000e0: 8d60 f13d a83a 9fbc 0750 3c3d dab5 41be
000000f0: 971e 453d 10ba e23d 2c70 c23d bc5e 3dbd
00000100: f88a 3f3b 8259 5f3d a62e bf3d 32c9 683d
00000110: 1cc2 20bc 0e7c 13bd e715 bebd 2167 ab3d
00000120: 3d6c 60bc 5d29 b6bd aca4 0a3d 1edc 233d
00000130: 7b76 60bd 7f9d a63d 15b2 bb3d 49cf d33d
00000140: f7b3 133d 7162 e63d 8ba3 1b3e 21b2 073d
00000150: 649d edbd 85cb 9f3d 866e 2b3e e2f2 b33d
00000160: 893e 523c 705e 893c f9f0 3f3e 285e 853d
00000170: 7513 4f3d a254 95bd 8c00 8ebd 003b d73d
00000180: ba0f 873d b768 d6bd 0370 af3c fe07 b03c
00000190: f949 54bd f04c f53d 888e 5ebd c74d fd3d
000001a0: 8e48 86bd 3be1 ef3d 0f96 993d 1f12 b03d
000001b0: f209 32bd 3b40 f33d 18c0 33bc b9e3 e93d
000001c0: ebeb 9e3d 3765 09bd 1971 0b3e 6337 dabd
000001d0: bf3c 0b3e 4f55 013e f27a 7cbd 13fa 9d3d
000001e0: 48f1 193e bd7c b5bc 09c7 873d 01ac 0dbd
000001f0: 6046 da3d ad8f 2d3d 1497 083d 2c9f c5bc
00000200: 76fc 85bd 282a 883d f1aa f6bd 8ab8 7e3d
00000210: 48a5 c1bc c269 7e3c 30a6 e8bd ffb3 a4bd
00000220: 69ed e93c 8968 0ebd 4c7c 813d dd45 00bd
00000230: e680 33bd 01fb ff3d e77f df3c 9813 303e
00000240: 4ea3 bf3d 8720 943d 03bf 653c 570b 173d
00000250: af88 3abd d122 393d ea84 e33d e1c4 da3d
00000260: 3b2e 1fbc f547 bd3d 8739 5bbd 57d5 b13d
00000270: 06fa f1bd 7160 043d 14c2 783d ac01 91bd
00000280: 2617 82bd fe20 fabd 7a1b 023d 5836 21bd
00000290: 457f 763d efa3 a1bd bce2 c63d 8fbd 813c
000002a0: 08a2 9f3d e665 e73d e3d0 e0bc a91c 03be
000002b0: e4c8 373d a001 d2bd 6d0a e6bd 031c 873d
000002c0: e7f0 20bb 2bb4 9bbd 4220 4dbc c762 8b3d
000002d0: 8d4d b0bd ab22 243d 32fd b03d d074 fc3d
000002e0: 7fe1 913d da9b c43d 8dc4 e33d bb1d e43c
000002f0: 379c 99bc 9952 6ebb e9f9 8b3d 810e dc3c
00000300: 74a6 babc 5a53 2fbc 3c6a 093d 60a4 2dbd
00000310: 4e96 243d de52 4b3e 1262 91bd af56 acbc
00000320: aad3 f23b 3a56 88bd 5ea2 5239 2c87 f33c
00000330: eeff dd3d 6cb4 23be 32aa 78bd 7915 b6bb
00000340: 4e2b 593d c689 113c b954 d9bc 54d5 a13d
00000350: cf90 b93d 1765 883d 0bb4 503d 1458 29be
00000360: 5e27 06bd 5745 163d 2859 8abb 7500 b1bd
00000370: 1814 d3bd ad5d fe3c 8874 1ebd 911c 1c3e
00000380: 8b81 4abe 29fe 86bd 7241 04be 9846 c23d
00000390: 1e64 debd 634f dd3d 15c1 663e 3b01 94ba
000003a0: b4bf 833e b3dc 0f3d 0c4d 353c 4f9e b5bc
000003b0: e762 a3bd e351 543e 5b74 e43c 6755 673e
000003c0: 4ee9 693e 213c ebbb 2b6e 143e 8f39 8dbd
000003d0: c490 223d d416 eb3c 2146 113e 6e55 403a
000003e0: 1e5b 7a3c a844 163e 78a6 b2bc ee61 1cbe
000003f0: 6d98 303c 955b 9b3c bac8 2ebd 3944 53bd

fc1.weight f4 [32, 64]
0.059409786 -0.06484313 -0.099370375 0.071593285 -0.12094882 -0.008398014 0.05695746 -0.041794017
-0.07742634 0.023297561 0.03743902 -0.030987374 0.09392342 -0.1331622 -0.020735402 0.03194947
0.13054602 -0.040779952 -0.10071665 -0.0069092168 -0.048111998 0.051761363 -0.08256898 -0.004391722
0.06869116 0.10053289 0.078657754 -0.10158635 0.1349404 -0.0974285 0.06357975 -0.11605288
0.055450648 0.023248903 0.11396664 -0.076085754 0.020615235 0.059544925 -0.057662763 -0.058019653
0.050544336 0.038092967 0.029867452 -0.08883037 0.09371851 0.057758357 0.0095371045 -0.030091463
0.03141014 -0.08598972 -0.08400945 0.03515232 0.097964145 -0.0014626797 -0.04959679 0.116123274
-0.030344067 0.081922404 -0.110777274 -0.012918942 0.03441555 0.049716894 -0.0762555 0.077356234
-0.13206732 -0.009207696 -0.023370251 -0.030095126 -0.07192137 -0.052393954 0.08940693 -0.0189341
-0.0052138134 0.073002554 -0.0396497 0.055327967 0.045965265 0.05202308 0.0009164431 -0.033816066
0.0065565244 -0.03438387 -0.023791345 -0.07684755 0.036680695 -0.01973401 -0.046665058 -0.14057739
-0.006039802 -0.07840862 -0.12586178 -0.020712033 0.0792731 -0.1353126 0.0044927006 0.017368695
-0.08184728 0.011674919 0.0029966028 0.1378088 -0.017763384 0.11883493 -0.08055505 0.040422894
-0.07754168 -0.09648598 -0.08432224 -0.044343777 0.116111174 -0.07973554 -0.061207607 -0.0143873105
-0.028251361 -0.037026774 -0.011215809 -0.09692798 -0.016124932 0.02020944 0.08324345 0.038399305
-0.06791859 0.1370486 -0.093853325 0.08893966 0.05002202 0.04503445 0.09322158 0.06372463
0.025613965 -0.0014802844 -0.052120745 0.023369426 -0.044617657 -0.053539984 -0.008174139 0.014720493
0.049607623 -0.020265082 -0.04915273 0.044399753 -0.019737182 -0.06364028 0.057367094 0.034573544
0.09480775 0.04899626 -0.072792955 -0.025340574 0.07618247 -0.012209223 -0.009389777 -0.43250176
-0.11355598 -0.060576428 -0.07719223 0.050903596 -0.0064055524 -0.05661918 -0.06987742 0.113126345
0.054992806 0.14373796 0.039537277 0.12606594 0.27185306 0.03876058 0.038625576 0.019839317
-0.10338922 0.003514275 -0.049127243 0.12264323 -0.10879296 0.077713236 -0.13879 -0.007438996
-0.36796138 0.10683739 -0.10050325 -0.0027933952 -0.09342974 0.071859576 -0.039169494 0.51721287
-0.033677697 -0.06391843 -0.088195086 0.01467713 0.055341844 -0.12503594 0.09803889 -0.13859835
-0.005462731 0.009170865 -0.049660563 0.07078547 0.056183677 0.0388424 0.02344615 0.027895393
-0.01741615 -0.11468111 0.03271002 0.16462606 -0.084138714 0.029830629 0.1304452 0.00013418058
0.019180348 0.0588078 0.050360914 0.05784255 -0.005319101 -0.0574056 -0.06443261 -0.03574556
0.009160682 0.048072115 0.024331387 -0.07200724 -0.089072086 0.016778925 -0.11775027 0.014355141
-0.069724664 -0.07888329 0.027616713 0.1590323 -0.2584834 0.09418845 0.15949443 0.0140560325
0.19462305 -0.11201335 0.03830596 0.0068803057 -0.032081913 -0.034556028 -0.063805245 -0.042751767
-0.025249412 -0.0865892 -0.005316528 -0.10171396 -0.076651 -0.1378152 0.1219357 -0.093303494
-0.002578387 0.035353795 -0.04118731 0.0592303 0.023424752 -0.032890152 -0.09795179 -0.045105353
00000000: ad57 733d 7acc 84bd b282 cbbd 809f 923d
00000010: 04b4 f7bd d397 09bc 3a4c 693d 3430 2bbd
00000020: b391 9ebd 87da be3c a859 193d 3cd9 fdbc
00000030: ec5a c03d ac5b 08be 4add a9bc 73dd 023d
00000040: dbad 053e e108 27bd 8844 cebd b666 e2bb
00000050: 1611 45bd b903 543d ed19 a9bd 6fe8 8fbb
00000060: f3ad 8c3d 30e4 cd3d 5117 a13d 810c d0bd
00000070: d12d 0a3e 9888 c7bd 1a36 823d 22ad edbd
00000080: 3820 633d 7c74 be3c 5767 e93d d9d2 9bbd
00000090: 48e1 a83c 61e5 733d ca2f 6cbd 04a6 6dbd
000000a0: 9407 4f3d 5f07 1c3d 96ac f43c b2ec b5bd
000000b0: 7def bf3d 0794 6c3d 8441 1c3c 5f82 f6bc
000000c0: eba7 003d 611b b0bd 260d acbd e1fb 0f3d
000000d0: 6da1 c83d 63b7 bfba 0126 4bbd 0ad2 ed3d
000000e0: 1f94 f8bc efc6 a73d 32df e2bd f8a9 53bc
000000f0: 52f7 0c3d f1a3 4b3d d82b 9cbd f26c 9e3d
00000100: a83c 07be e0db 16bc f872 bfbc 0e8a f6bc
00000110: 834b 93bd 0b9b 56bd fb1a b73d b01b 9bbc
00000120: a3d8 aabb 5d82 953d b967 22bd 949f 623d
00000130: 1346 3c3d 2716 553d 753d 703a b782 0abd
00000140: 1dd8 d63b 1ad6 0cbd 11e6 c2bc 4062 9dbd
00000150: 7f3e 163d 38a9 a1bc dc23 3fbd 85f3 0fbe
00000160: 88e9 c5bb b394 a0bd e9e1 00be 48ac a9bc
00000170: ef59 a23d 638f 0abe 8137 933b cb48 8e3c
00000180: 8c9f a7bd 2948 3f3c a762 443b c01d 0d3e
00000190: 8484 91bc ba5f f33d 0cfa a4bd 7a92 253d
000001a0: 2cce 9ebd 719a c5bd 23b1 acbd d2a1 35bd
000001b0: b2cb ed3d 634c a3bd d4b4 7abd c1b8 6bbc
000001c0: 666f e7bc 63a9 17bd 83c2 37bc 2d82 c6bd
000001d0: 6f18 84bc 448e a53c 8b7b aa3d 9748 1d3d
000001e0: e718 8bbd 7856 0c3e 2c36 c0bd ff25 b63d
000001f0: e4e3 4c3d 0b76 383d f5ea be3d 0f82 823d
00000200: 61d4 d13c 1a06 c2ba 907c 55bd 3d71 bf3c
00000210: 01c1 36bd be4c 5bbd d3ec 05bc 392e 713c
00000220: 5d31 4b3d f502 a6bc 5f54 49bd 84dc 353d
00000230: dfaf a1bc d655 82bd c2f9 6a3d fd9c 0d3d
00000240: 912a c23d 4db0 483d 7914 95bd 0997 cfbc
00000250: 8e05 9c3d 3109 48bc 94d7 19bc df70 ddbe
00000260: 0a90 e8bd fd1e 78bd f616 9ebd 4a80 503d
00000270: abe5 d1bb 83e9 67bd e51b 8fbd c9ae e73d
00000280: 2340 613d 0b30 133e d7f1 213d 6e17 013e
00000290: 5330 8b3e 6ac3 1e3d da35 1e3d 1086 a23c
000002a0: babd d3bd c04f 663b a639 49bd 602c fb3d
000002b0: d8ce debd 1e28 9f3d f71e 0ebe d2c2 f3bb
000002c0: 6f65 bcbe 90cd da3d a6d4 cdbd 6511 37bb
000002d0: 1758 bfbd 1d2b 933d 3170 20bd 1068 043f
000002e0: a0f1 09bd aae7 82bd a09f b4bd 5878 703c
000002f0: 21ae 623d 6c09 00be 9dc8 c83d baec 0dbe
00000300: b500 b3bb 6541 163c e068 4bbd f9f7 903d
00000310: db20 663d 3519 1f3d 2412 c03c e184 e43c
00000320: 50ac 8ebc eedd eabd f1fa 053d bc93 283e
00000330: eb50 acbd 5d5f f43c 6d93 053e d3b2 0c39
00000340: 1b20 9d3c 73e0 703d 3f47 4e3d 4fec 6c3d
00000350: da4b aebb 2222 6bbd 3ff5 83bd f069 12bd
00000360: af16 163c 44e7 443d 9e52 c73c 8878 93bd
00000370: 6d6b b6bd f573 893c 0e27 f1bd d331 6b3c
00000380: cecb 8ebd 908d a1bd 723c e23c 5dd9 223e
00000390: f057 84be e0e5 c03d 8252 233e 464b 663c
000003a0: 444b 473e 4167 e5bd b6e6 1c3d 3074 e13b
000003b0: 5368 03bd 9f8a 0dbd 53ac 82bd 7a1c 2fbd
000003c0: dbd7 cebc ae55 b1bd 4536 aebb 694f d0bd
000003d0: 33fb 9cbd 6e1f 0dbe 6db9 f93d e715 bfbd
000003e0: 28fa 28bb 24cf 103d 06b4 28bd 799b 723d
000003f0: 44e5 bf3c d3b7 06bd f39a c8bd 64c0 38bd

fc1.bias f4 [32]
0.08985695 -0.0038562997 0.042272955 -0.073460795 -0.0068455874 0.009574253 -0.014171045 -0.14677575
0.05180552 -0.07263657 0.050438907 0.018549904 -0.012898018 0.023630997 -0.03879604 -0.11246679
0.046680514 -0.059924144 -0.046657823 -0.108450174 -0.06815727 -0.062618256 0.032567557 -0.10377644
-0.08617136 -0.1397794 -0.011838716 -0.060887955 -0.071510926 -0.05731917 -0.0026512106 -0.02552709
00000000: ec06 b83d f9b9 7cbb 6826 2d3d 9d72 96bd
00000010: f350 e0bb 54dd 1c3c ac2d 68bc 624c 16be
00000020: 0632 543d 7bc2 94bd 0799 4e3d f8f5 973c
00000030: 3552 53bc cb95 c13c 99e8 1ebd fd54 e6bd
00000040: 1134 3f3d 0573 75bd 461c 3fbd 201b debd
00000050: 0a96 8bbd 003e 80bd 8f65 053d be88 d4bd
00000060: 9c7a b0bd 5522 0fbe 2df7 41bc a665 79bd
00000070: 5274 92bd 82c7 6abd efbf 2dbb 301e d1bc

fc2.weight f4 [1, 32]
0.027157199 0.07898316 -0.21227595 0.09859329 -0.026916213 -0.07299506 0.039424654 -0.17170979
-0.06994864 -0.03546663 0.061784413 0.051591225 -0.13286053 -0.1641899 -0.047071207 -0.1971882
-0.19027388 -0.030165728 0.10015818 -0.08911254 0.11085508 0.12732302 0.12505797 -0.056436602
0.073679164 -0.16876955 -0.077627726 0.053108647 -0.027869161 0.16331188 -0.15848418 -0.09629645
00000000: c678 de3c ecc1 a13d de5e 59be 47eb c93d
00000010: 647f dcbc 6f7e 95bd bf7b 213d b1d4 2fbe
00000020: 3c41 8fbd 7545 11bd a711 7d3d 5251 533d
00000030: 970c 08be 6621 28be bdcd 40bd b4eb 49be
00000040: 28d7 42be 1e1e f7bc bb1f cd3d a380 b6bd
00000050: fd07 e33d f760 023e 320f 003e 112a 67bd
00000060: 1ae5 963d edd1 2cbe 49fb 9ebd 7488 593d
00000070: de4d e4bc 3b3b 273e ad49 22be 1337 c5bd
